model_text.pt (torch_old, 27491 bytes, 2 tensors)

weight f4 [4, 1200]
000000 a0 3d b5 3b 83 bd 8a bc c2 42 2a 3c 14 40 b6 bc
       0.005531028 -0.01693607 0.010391893 -0.022247352
000010 fc dd 6f bc 01 b2 87 39 60 94 8d 3c ea 58 70 bc
       -0.014640328 0.0002588183 0.017282665 -0.014669636
000020 b2 fd 8d bc b1 26 97 bc 63 62 93 3c 41 24 bc 3c
       -0.017332885 -0.018451067 0.01799125 0.022966506
000030 02 6b 33 bc 0a 70 9c 3c 52 c0 6f bc e2 4d 73 bc
       -0.010950806 0.019096393 -0.014633255 -0.014850112
000040 80 2f 2d bc a8 2f a3 3c c9 98 a4 bc fd 65 ad 3c
       -0.010570407 0.019920185 -0.020092385 0.021166796
000050 de 9f c2 bc 6b 7f ad bc 61 83 54 3c 6e c7 c2 3b
       -0.023757871 -0.021178922 0.012970776 0.005944184
000060 30 fb d0 3b 2f 1d 81 bc b4 97 d8 3c f5 4d e6 bc
       0.0063776 -0.015760986 0.026439525 -0.028113345
000070 54 a4 55 bc 5c d0 16 3c 91 19 eb ba 57 39 e7 bc
       -0.013039667 0.00920495 -0.0017936697 -0.028225584
000080 b4 ec c0 bc be 84 d3 bc 72 d4 ca 3c d0 8e 3c bc
       -0.023550369 -0.025820132 0.024759505 -0.0115086585
000090 38 55 9e bb 10 e5 a6 bc 14 b8 ce bb 3a e0 c4 3c
       -0.004831936 -0.020372897 -0.006308565 0.0240327
0000a0 8f 21 a4 3c 1a 3f 10 3a 69 9c a2 bc 0f ca d8 3c
       0.020035533 0.0005502567 -0.019849973 0.026463537
0000b0 2f e0 b8 3c 53 d4 3b 3c a9 74 b6 bc 93 d1 d9 bc
       0.022567837 0.011464196 -0.022272425 -0.02658919
0000c0 58 01 ed bb a0 25 86 3c c6 83 ea bc f3 27 8e bc
       -0.007232826 0.016375363 -0.028627288 -0.017353034
0000d0 a5 34 a1 3c 76 be dd bc 4d af cd bc 53 df 96 3c
       0.019678423 -0.027068358 -0.025108004 0.018417036
0000e0 a5 8a 82 3c cf 01 51 bb f0 dc 51 ba 4c f4 8f 3c
       0.015935251 -0.0031891947 -0.00080056395 0.017572545
0000f0 b7 9c 28 3c ce 13 04 3c 0e 60 3a bc 11 fd 88 bb
       0.01029127 0.008061362 -0.01137544 -0.0041805585
000100 3f 29 d8 3b 5d 96 e2 3c e2 1e df 3b 1b 1c 23 3b
       0.006596714 0.02765959 0.0068091014 0.0024888578
000110 60 e0 16 3c 61 44 c6 3b 9f 82 88 bc 57 a1 db 3c
       0.009208769 0.006050632 -0.016663847 0.026810331
000120 83 cf dd ba dc 5d 98 bb 19 7d a1 bc 6f ce 8c bc
       -0.0016922805 -0.004649861 -0.019712972 -0.017188279
000130 f8 77 87 3c cc 16 51 bc 3c 39 a2 bc 6a 68 19 3c
       0.016536698 -0.012761783 -0.019802682 0.009363273
000140 6c ef 35 bc c5 ef d8 3b 69 83 c2 3b 12 5c ac 3c
       -0.011104446 0.0066203796 0.0059360755 0.021039996
000150 7f f2 29 3c 09 21 4a 3c 34 c9 8e bc 67 9c 4e 3b
       0.010372757 0.012336978 -0.017429926 0.0031526329
000160 a6 dc ae bc c5 b2 b2 bb b2 6c 2d bc 19 f1 9a bc
       -0.021345448 -0.00545344 -0.010584997 -0.018913792
000170 f9 9b 02 bb 68 69 d1 bc a3 0a a4 bc 52 8c 8d b8
       -0.0019929393 -0.025562957 -0.020024603 -6.7495406e-05
000180 3c 72 5e bc 96 fd 7c 3b 61 61 49 bc 01 6f f2 ba
       -0.01357704 0.0038603297 -0.012291283 -0.0018496217
000190 cf 8e 23 bc d8 3d 45 3b 70 98 f6 bb 87 03 88 3c
       -0.009982779 0.0030096676 -0.007525496 0.016603244
0001a0 d6 03 ac bc 86 82 c9 bc f7 60 8b 3c 64 8b df 3c
       -0.020997923 -0.024598371 0.01701401 0.027288146
0001b0 0c c1 a3 3c ed 8d 3b bc 01 4b de bc 19 61 ba bc
       0.019989513 -0.011447412 -0.027135374 -0.022751378
0001c0 07 97 5b 3b eb fb 82 bc d4 4d e9 bc a5 71 bf ba
       0.0033506767 -0.015989264 -0.028479494 -0.0014606012
0001d0 55 51 d6 3c e0 3d 09 3c c9 c1 f4 3b 3d 61 b3 bc
       0.026161829 0.008376569 0.00746939 -0.021896953
0001e0 32 75 e6 bc 49 ec 9c bc 1c 39 cb bc 2c 16 14 3b
       -0.028132055 -0.019155638 -0.024807505 0.0022596223
0001f0 f8 af ae bc b7 39 b1 bc bc 57 de 3c d7 c5 a3 bc
       -0.021324143 -0.021633966 0.027141444 -0.019991798
000200 f4 fb 35 3c 0c 99 d3 3c 34 9b b4 bb a5 97 51 3a
       0.011107434 0.025829814 -0.0055116657 0.0007995314
000210 52 1c 63 bc 16 b4 6d 3b 1a 9a df 3c ef 8a 49 3c
       -0.013861733 0.003627067 0.027295161 0.012301191
000220 90 dd 85 3c 10 ec 47 bc 0a 80 97 3c 2b 15 5c bb
       0.016341 -0.012202278 0.018493671 -0.0033581953
000230 a6 a7 07 bc 38 5d ae 3c e4 b1 82 3b de 43 8f 3c
       -0.008279717 0.021284685 0.0039884914 0.017488416
000240 45 7b d7 bc 5f 22 88 3b c9 28 a8 bb 4e 94 3b bb
       -0.026303897 0.004154488 -0.005131815 -0.0028622332
000250 95 ab a4 bc 9f 3e cb bc 16 d4 ec bc 61 8e bf 3c
       -0.020101348 -0.024810134 -0.028909724 0.023383321
000260 e8 f9 8a bc 7f 1a b4 ba 3d 7e b8 3a 7d d1 a8 bc
       -0.016964868 -0.0013740807 0.0014075708 -0.020607704
000270 0a 13 af 3c f8 12 db 3c 00 aa db 3b 46 2e cd 3c
       0.021371383 0.026742443 0.006703615 0.025046479
000280 bc e3 8f 3b 4f 58 d7 bc c9 52 e7 bc 33 2f 20 bb
       0.0043911617 -0.026287226 -0.028237717 -0.0024442195
000290 d9 1f 24 3c 0e 7c e4 bc c6 fa 9e 3c 81 a7 5a bc
       0.010017359 -0.027891185 0.019406687 -0.0133456
0002a0 ba 63 a4 bb 34 2b 40 bc a8 42 a5 bc 77 f3 de bc
       -0.005016771 -0.01172905 -0.020173386 -0.027215702
0002b0 b7 77 bc 3c dd 82 33 bc df 50 05 3c 78 39 1b bc
       0.023006303 -0.010956493 0.008136957 -0.009474151
0002c0 18 af 65 bc 76 e8 22 3b 1b 9a 97 bc 53 9a 60 bc
       -0.014018796 0.0024857796 -0.0185061 -0.013708669
0002d0 e4 b4 e5 38 5d 0c 17 bc 98 10 8b 3c cc 34 65 bb
       0.000109532644 -0.009219256 0.016975686 -0.0034974096
0002e0 e1 8e ac 3c c4 74 50 bb 4f bc 20 ba 61 0f 6c bb
       0.021064224 -0.003180788 -0.0006131576 -0.0036019909
0002f0 61 b2 39 3c cc a1 ac 3b c1 f4 d5 bc 38 de 11 bb
       0.011334033 0.005268311 -0.026117684 -0.0022257697
000300 14 ab bc bb a5 e6 18 3c d5 31 89 3c 71 e0 fd 3a
       -0.005757699 0.009332334 0.016747395 0.0019369257
000310 5b b5 ba 3b 5f d1 db 3c e3 3a 84 3c 3b 45 e3 3c
       0.005697889 0.026833234 0.01614136 0.027742973
000320 28 f7 44 bc fd fa e3 bb 76 75 8f 3a c6 b6 1c bc
       -0.012021817 -0.0069574104 0.001094504 -0.009565061
000330 f3 b0 8d 3c 52 eb 0f bc c0 2a 8d 3b ef 81 fa bc
       0.01729629 -0.008784132 0.0043080747 -0.030579535
000340 ca 1d 76 3b 02 99 98 3c 7f 18 80 bc af 8b 8b bc
       0.0037554377 0.018627647 -0.01563668 -0.01703438
000350 bc 36 f2 bc 61 23 10 3c 9b 61 c5 bb e2 fb 5e bc
       -0.029567115 0.0087974975 -0.0060235984 -0.013609858
000360 1c 1d 99 3c 92 62 a8 3c fd d9 72 3c 25 9a 2b bc
       0.018690638 0.020554814 0.01482248 -0.010473763
000370 f2 e5 c4 bc d5 29 13 bc a4 63 d4 bc a0 b1 9f 3b
       -0.024035428 -0.0089821415 -0.025926419 0.0048734695
000380 df 0d 98 3c 60 e7 6a bc 48 75 e4 3b 00 85 57 bc
       0.018561302 -0.014337391 0.006971989 -0.013154268
000390 73 84 f2 3c 3c 4b 74 39 51 bf 94 bc 05 8d 37 3c
       0.029604172 0.0002329768 -0.018157633 0.011203055
0003a0 65 90 a3 bc 54 af d9 3a 87 e9 be 3c 7e f7 3f 3b
       -0.019966314 0.0016608038 0.023304714 0.0029291804
0003b0 52 ca 8f 3c ba f0 df bc 15 55 18 ba 21 97 99 bc
       0.017552529 -0.027336467 -0.0005811018 -0.018748822
0003c0 e2 48 61 bc 2a 0d 9e bb e5 23 29 3c af 86 af bb
       -0.013750287 -0.0048233466 0.010323499 -0.0053566317
0003d0 61 b6 cb bc 69 a7 ce bc dc 2c 85 bc 8e 04 80 bc
       -0.024867238 -0.025226312 -0.016256742 -0.015627172
0003e0 39 39 d0 bc 03 e7 4f bc 31 03 aa bc 5c c8 b5 3c
       -0.02541791 -0.012689355 -0.020753475 0.022190265
0003f0 4d a9 c8 3c e2 29 93 3c bd 24 d2 bb 99 76 96 bc
       0.024494791 0.017964307 -0.006413071 -0.018367099

bias f4 [4]
000000 23 30 9b bc 8c 22 c1 3c 33 70 09 bd dc c2 e9 bc
       -0.018943852 0.023576044 -0.033554267 -0.028535299
