model.pt (torch_old, 392239 bytes, 4 tensors)

weight f4 [100, 903]
0.023662003 -0.0033588933 0.031888764 -0.007671875 -0.015411365 0.018793765 0.004323865 0.022518627
0.026392741 -0.027842075 -0.02704041 -0.01157472 -0.05195128 0.005413456 0.04253664 0.0461635
0.014967734 0.020816838 0.032370817 -0.013986542 -0.045497183 0.027563404 0.018482666 -0.0061035617
0.028438546 -0.035686113 -0.015927127 -0.0074738725 0.01828263 0.0039378735 0.0061010187 0.03346884
-0.008873684 -0.009750699 -0.0031974814 -0.026624484 -0.0020735636 0.004502185 -0.0068090777 -0.0036858476
0.012689585 0.0015563113 -0.042482268 -0.011990061 -0.0017148701 0.033496246 -0.019169115 0.005703183
0.0012116306 0.023321152 -0.010952696 -0.038129915 -0.012560335 -0.014948406 -0.01573577 -0.022127867
-0.036396183 0.009822102 -0.0068809735 0.021834223 -0.021322735 -0.030367788 -0.0115418555 -0.031005407
-0.017321194 0.037825186 0.007320222 -0.0122214975 -0.034217093 0.008257148 -0.025189009 -0.02153032
0.00011425014 0.014668743 0.003449988 0.022936478 0.0118276095 0.012866217 0.008850627 0.026057238
0.020466875 0.017252535 0.024017258 -0.013710088 0.019477248 0.034349255 -0.021482626 0.0011847994
-0.017868474 0.02068482 0.004043643 -0.0001558054 -0.03033493 -0.026067972 0.013915951 -0.000121705234
0.005223904 -0.002169534 -0.039839316 -0.016492086 -0.035020817 -0.005364968 -0.018899169 -0.0035803283
0.011486287 0.015836267 0.013354805 -0.039825913 -0.0074435472 0.029018687 0.015575423 0.014607685
0.016642373 -0.030604914 -0.00023815618 0.02994234 0.020060575 0.0044153165 0.0017056258 -0.015474648
-0.019044545 -0.016374514 -0.03188897 0.012621306 0.023101134 0.004846956 -0.019907348 -0.013760904
-0.019928353 -0.017490108 -0.012431441 -0.035267387 -0.0004404645 -0.02138919 -0.021840658 0.026577486
-0.00946177 -0.01104434 0.016703758 -0.0043780156 -0.016246349 0.028700158 -0.030413004 0.034127444
0.024424938 0.022831881 0.020220764 0.05345047 0.007967024 -0.0042385673 -0.018768853 0.025473187
0.0064353882 -0.02103118 0.013334519 -0.02622757 0.015384481 -0.014534935 0.015104508 -0.03418148
-0.02183281 -0.041373037 -0.038385026 0.0034593148 -0.018688383 0.005811495 -0.03688521 -0.02902493
0.016320508 0.018174395 0.0065635545 -0.0021591065 -0.023084613 -0.034259267 0.014517974 -0.015300609
0.0068467027 -0.018559963 -0.011345377 -0.028990127 0.008875813 -0.022343231 0.008144466 0.004382327
-0.0049564354 0.040140137 -0.028485212 0.01995602 -0.0104885455 0.029471742 -0.004651659 -0.02623034
-0.031130455 -0.0041540097 -0.023956463 0.012585483 -0.0064618383 -0.017256107 -0.028439153 -0.00660862
-0.039881356 -0.014212154 0.014578703 0.0052799415 -0.034142867 -0.046369776 0.019145692 -0.010505515
-0.0045180526 -0.017540028 -0.032916564 -0.04533371 -0.0026127705 -0.010738717 -0.011499554 0.044386033
0.026113044 -0.009026837 -0.04821229 -0.00031863336 -0.009903521 0.0056166183 0.0066053737 0.0072119376
0.011419732 -0.02336675 -0.025515912 -0.012243107 -0.014749129 0.011781355 0.00203621 0.0072770165
-0.04986566 -0.009242621 0.03133214 0.0032316763 -0.006041471 0.01782866 0.02996624 -0.019079147
0.028598456 0.021558443 0.0113822995 -0.02117141 0.016356446 -0.013892828 0.030003658 -0.010285246
-0.002782131 -0.0012028472 -0.008426912 -0.0026277406 -0.02945418 0.024335854 -0.005102353 0.026815837
00000000: d1d6 c13c e120 5cbb cb9d 023d 5a64 fbbb
00000010: f37f 7cbc 62f5 993c 35af 8d3b fc78 b83c
00000020: 9735 d83c 1015 e4bc da83 ddbc e5a3 3dbc
00000030: deca 54bd 5c63 b13b e63a 2e3d f015 3d3d
00000040: 3a3b 753c 1388 aa3c 4397 043d cf27 65bc
00000050: 415b 3abd a6cc e13c f668 973c 6300 c8bb
00000060: f4f7 e83c 9a2b 12bd 9b79 82bc 63e7 f4bb
00000070: 74c5 953c 4709 813b 0eeb c73b 9f16 093d
00000080: ee62 11bc 65c1 1fbc d68c 51bb 971b dabc
00000090: a0e4 07bb 1187 933b af1e dfbb 438e 71bb
000000a0: fae7 4f3c 24fd cb3a e301 2ebd f671 44bc
000000b0: 7ec5 e0ba 5c33 093d 8c08 9dbc c4e1 ba3b
000000c0: 94cf 9e3a 000c bf3c f072 33bc 1d2e 1cbd
000000d0: ddc9 4dbc 29ea 74bc 4de8 80bc 8045 b5bc
000000e0: 2a14 15bd e2ec 203c ca79 e1bb afdd b23c
000000f0: 04ad aebc dec5 f8bc 0d1a 3dbc 0dff fdbc
00000100: 2de5 8dbc 95ee 1a3d 79de ef3b ad3c 48bc
00000110: 3927 0cbd fd48 073c 2e59 cebc 5b60 b0bc
00000120: 9499 ef38 2b55 703c 3219 623b 48e5 bb3c
00000130: 97c8 413c d3cc 523c 3802 113c fd75 d53c
00000140: 26aa a73c 3055 8d3c d7bf c43c 47a0 60bc
00000150: c08e 9f3c ceb1 0c3d 55fc afbc 454b 9b3a
00000160: e860 92bc 3673 a93c 8980 843b b25f 23b9
00000170: f680 f8bc 808c d5bc bbff 633c 003c ffb8
00000180: 482d ab3b be2e 0ebb 8d2e 23bd 691a 87bc
00000190: fd71 0fbd 9dcc afbb 6ed2 9abc f1a3 6abb
000001a0: fb30 3c3c 0fbb 813c 1dce 5a3c 7f20 23bd
000001b0: 00e9 f3bb 99b8 ed3c 0f30 7f3c 1255 6f3c
000001c0: 9655 883c 28b7 fabc 90b9 79b9 a349 f53c
000001d0: 1356 a43c 5cae 903b 4e8f df3a 6189 7dbc
000001e0: 4e03 9cbc d823 86bc 029e 02bd 98c9 4e3c
000001f0: 973e bd3c 37d3 9e3b bc14 a3bc 6a75 61bc
00000200: c940 a3bc 6a47 8fbc 3ead 4bbc 8974 10bd
00000210: 25ee e6b9 6238 afbc 2eeb b2bc 07b9 d93c
00000220: 8a05 1bbc 52f3 34bc 52d6 883c 7575 8fbb
00000230: 1017 85bc 981c eb3c b124 f9bc 38c9 0b3d
00000240: cf16 c83c ed09 bb3c 04a6 a53c e1ee 5a3d
00000250: 1f88 023c aee3 8abb 23c1 99bc 25ad d03c
00000260: f3df d23b 9549 acbc 0779 5a3c 33db d6bc
00000270: 310f 7c3c f023 6ebc e678 773c e101 0cbd
00000280: b9da b2bc c676 29bd 9e39 1dbd acb5 623b
00000290: 6118 99bc 5a6e be3b f214 17bd b1c5 edbc
000002a0: 96b2 853c 78e2 943c 1613 d73b cc7f 0dbb
000002b0: f11b bdbc 7253 0cbd ccdc 6d3c 68af 7abc
000002c0: 4e5a e03b 100b 98bc f6e1 39bc b47c edbc
000002d0: dc6b 113c 2709 b7bc 5e70 053c a099 8f3b
000002e0: 9869 a2bb fc69 243d d259 e9bc cf7a a33c
000002f0: 26d8 2bbc b96e f13c f26c 98bb 03e1 d6bc
00000300: 4c05 ffbc 5c1e 88bb 5840 c4bc 5733 4e3c
00000310: d4bd d3bb ae5c 8dbc 3af9 e8bc 1f8d d8bb
00000320: a25a 23bd 18da 68bc 83db 6e3c 5c03 ad3b
00000330: 64d9 0bbd 3cee 3dbd 6dd7 9c3c 531f 2cbc
00000340: 2c0c 94bb 1bb0 8fbc 85d3 06bd d7af 39bd
00000350: 043b 2bbb 72f1 2fbc a068 3cbc 21ce 353d
00000360: 06eb d53c 4ce5 13bc 407a 45bd 3f0e a7b9
00000370: 6142 22bc 9c0b b83b e471 d83b 1e52 ec3b
00000380: d419 3b3c a06b bfbc bf06 d1bc 5097 48bc
00000390: 55a6 71bc 9606 413c ef71 053b 0a74 ee3b
000003a0: ef3f 4cbd 5d6e 17bc 2156 003d 88ca 533b
000003b0: 88f7 c5bb 690d 923c c37b f53c df4b 9cbc
000003c0: 4f47 ea3c 559b b03c d37c 3a3c aa6f adbc
000003d0: f4fd 853c be9e 63bc 3bca f53c 7383 28bc
000003e0: 6a54 36bb dba8 9dba 0811 0abc 2c36 2cbb
000003f0: e449 f1bc fc5b c73c a431 a7bb e3ac db3c

bias f4 [100]
-0.031578854 0.00074129587 0.022597829 0.027157653 -0.0011230074 -0.022742657 0.017857945 0.011492777
0.012691565 -0.006436747 0.014869997 -0.0032672423 0.021205926 -0.020600623 0.026631754 -0.024432024
0.013152851 0.009605361 0.022602156 -0.032291662 0.021630172 -0.01057897 -0.014411467 0.0070550893
-0.030213334 0.007158753 0.020940017 -0.0132014435 0.005450814 -0.023803921 0.01523871 -0.0035127134
-0.019924952 -0.011814885 0.011426356 -0.025823364 0.0033017355 -0.024562221 0.034306362 0.022291321
0.0081750015 -0.0061999755 -0.005898393 -0.016404536 0.007415413 -0.0046643685 -0.028552746 -0.02299871
-0.04019781 -0.0048139063 -0.014074997 0.016962597 0.013592412 -0.029439714 0.020667898 0.024971938
0.019814841 0.02076966 -0.007002896 -0.0031140512 -0.02846896 0.02261044 -0.024017906 -0.00695314
0.018340288 0.017784374 0.018682156 0.009163221 0.036955904 -0.026762197 -0.02464562 0.011109548
-0.0018651597 0.029441794 0.024006376 0.041273497 -0.0029382687 0.018589055 0.015762199 -0.0068497867
-0.027478348 0.0070278994 0.015823783 0.013248085 0.0055838227 -0.0037701335 0.011773503 0.019273972
0.010974638 0.010246072 -0.020233087 0.022139966 0.02910166 -0.00033650818 0.019437425 -0.0213079
0.024666162 0.02566415 -0.0065206615 0.018383816
00000000: d458 01bd 8653 423a 151f b93c ba79 de3c
00000010: e031 93ba cf4e babc d34a 923c 334c 3c3c
00000020: 48f0 4f3c 59eb d2bb 4aa1 733c 3b1f 56bb
00000030: 0db8 ad3c a3c2 a8bc d62a da3c ab25 c8bc
00000040: 0e7f 573c ce5f 1d3c 2828 b93c 4344 04bd
00000050: c231 b13c 6b53 2dbc 131e 6cbc 612e e73b
00000060: f481 f7bc f993 ea3b 668a ab3c de4a 58bc
00000070: be9c b23b 7100 c3bc c8ab 793c 8d35 66bb
00000080: a739 a3bc 3893 41bc 9c35 3b3c 858b d3bc
00000090: ee61 583b b636 c9bc d484 0c3d 4a9c b63c
000000a0: 71f0 053c 2a29 cbbb 4f47 c1bb ce62 86bc
000000b0: fefc f23b 8fd7 98bb 73e7 e9bc ca67 bcbc
000000c0: 75a6 24bd f9bd 9dbb d19a 66bc 25f5 8a3c
000000d0: b5b2 5e3c 8e2b f1bc b94f a93c f391 cc3c
000000e0: bc52 a23c 2225 aa3c 8d78 e5bb 1c15 4cbb
000000f0: bd37 e9bc 8839 b93c 33c1 c4bc 2ad7 e3bb
00000100: 5f3e 963c 89b0 913c 520b 993c 5621 163c
00000110: 135f 173d 653c dbbc 9ce5 c9bc d204 363c
00000120: 6078 f4ba eb2f f13c 05a9 c43c 660e 293d
00000130: f88f 40bb 1348 983c ba1f 813c 2d74 e0bb
00000140: 461a e1bc 4b4a e63b e1a0 813c 7f0e 593c
00000150: 80f8 b63b 5814 77bb a7e5 403c 73e4 9d3c
00000160: f8ce 333c 24df 273c dcbf a5bc e05e b53c
00000170: 9b66 ee3c 5d6d b0b9 3c3b 9f3c e88d aebc
00000180: b110 ca3c a03d d23c 46ab d5bb a899 963c

weight f4 [4, 1400]
0.0012745052 -0.015729928 -0.0056735734 0.014257794 -0.0037874524 0.020679032 -0.016363217 0.002515101
-0.008608447 -0.010009752 -0.0009784817 -0.00016397657 -0.024880184 -0.016846348 -0.005000087 0.012996161
0.012665236 -0.025274914 0.020474926 -0.0067455675 -0.0123281535 0.01145313 0.020314714 0.0046376023
0.028742116 0.020020876 -0.008873721 -0.015965773 0.023490587 0.0063138544 -0.015352512 -0.023306364
0.02563546 0.019917121 -0.007842659 -0.0025218236 -0.0066748136 0.03387742 -0.014171493 -0.012880441
-0.022763133 0.020710576 -0.019437779 -0.000726074 -0.028860925 0.011596639 0.00703941 0.007926328
-0.003986677 0.014624735 0.00507371 -0.022159824 -0.028634263 -0.017303389 0.0071511026 0.009005617
0.022049544 0.010566562 0.012028703 -0.012239916 -0.009501688 -0.016978867 -0.007469857 -0.0073821913
0.027057193 -0.023506707 0.021631505 0.004232832 -0.026087819 0.013960077 0.020260487 -0.0023541246
-0.0065835845 -0.0037934661 0.010363177 -0.024776373 -0.017480703 -0.012380355 -0.017882539 -0.021813415
0.0262872 -0.01018214 0.0015379082 -0.01243148 0.016980108 0.011995157 -0.016836973 0.02886263
-0.007663818 0.016726717 -0.01759758 -0.00082608446 0.0042803343 -0.009644743 -0.013364894 0.007697584
0.0031413506 0.008360454 -0.02559716 0.0026833338 -0.012536156 0.029901993 -0.011780913 0.006387839
-0.014117683 0.036160126 0.02375882 0.008557182 -0.01573673 -0.009335953 -0.018869944 0.006865294
0.017590873 -0.011732634 -0.021064838 -0.009458823 -0.007220091 -0.0023464789 0.0068715746 0.0054701287
0.017267955 -0.0057367133 0.006111514 0.021868905 0.02281662 0.018557942 0.018730717 0.027181547
0.00056108844 -0.0077911504 0.0077548404 0.022634415 0.0142921675 -0.010920383 -0.021117821 0.00685701
-0.011018482 0.03013235 -0.0011229203 0.01466164 0.015643489 -0.003744889 0.0150264865 -0.010494638
0.025012922 0.012565094 0.0033964787 0.019922724 0.019347737 0.025914209 0.0005465442 -0.011998587
-0.018718436 0.012361316 0.0058917818 0.01010946 0.024877105 -0.005123428 0.015327277 0.018165229
0.017794332 0.025643531 -0.013066853 -0.008496301 0.020205675 -0.0010788119 -0.021083713 0.0018274154
-0.021922458 -0.016419528 -0.0029439852 -0.021792818 0.0069419574 -0.011369133 0.0011541428 0.0016955361
0.013216136 0.020194009 -0.0015099254 0.020085355 -0.0074183475 0.0034012767 0.027407868 -0.0058202823
-0.008475441 0.0050271694 0.0063977446 -0.004791077 0.01526471 -0.0048462567 0.015183036 -0.008404527
-0.0031182494 0.018347595 0.012758555 -0.015015721 0.0074352804 0.018498495 -0.012041037 0.00070293364
-0.005790157 0.011365019 0.014870761 0.00013131024 0.0053795134 0.0015669538 -0.012981769 0.018550206
0.00014597973 0.031612035 0.03100662 0.03179487 0.017961653 -0.01655065 0.0031252622 0.0069362745
-0.017149806 -0.007295067 0.0225485 -0.019678827 -0.009360597 -0.01313029 0.014006831 -0.02553055
0.02067272 0.019359501 -0.007882229 0.0043161083 0.022948097 0.017431654 0.01817553 -0.0061961184
0.005229295 -0.0091741085 -0.01647413 -0.011542107 -0.008968802 -0.0018569336 -0.010458179 0.025962843
-0.018679539 -0.009964651 -0.020302817 0.0005787895 0.001524348 -0.010709467 0.015566186 -0.0042783148
-0.016548926 -0.00302847 -0.0026615253 -0.018693281 0.006456033 -0.006513963 0.030988727 -0.0073058144
00000000: 4c0d a73a 0ddc 80bc 62e9 b9bb 8699 693c
00000010: e836 78bb 1367 a93c 270c 86bc 65d4 243b
00000020: 720a 0dbc f1ff 23bc 6640 80ba 20f1 2bb9
00000030: 87d1 cbbc 5a01 8abc c5d7 a3bb daed 543c
00000040: da81 4f3c 560d cfbc 08bb a73c ec09 ddbb
00000050: 06fc 49bc e9a5 3b3c 0b6b a63c 07f7 973b
00000060: 9674 eb3c d202 a43c 1563 11bc a7ca 82bc
00000070: 556f c03c 73e4 ce3b 1a89 7bbc fdec bebc
00000080: 7501 d23c 3b29 a33c 7f7e 00bc 2e45 25bb
00000090: 65b8 dabb 0dc3 0a3d 8d2f 68bc 7c08 53bc
000000a0: c079 babc 3aa9 a93c fa3b 9fbc 0056 3eba
000000b0: bf6d ecbc d4ff 3d3c daaa e63b 6edd 013c
000000c0: aca2 82bb 969c 6f3c 5d41 a63b 8588 b5bc
000000d0: 6792 eabc d6bf 8dbc cc53 ea3b 4c8c 133c
000000e0: 3fa1 b43c 601f 2d3c 0914 453c ee89 48bc
000000f0: f8ac 1bbc 4417 8bbc b4c5 f4bb 4fe6 f1bb
00000100: 0ca7 dd3c 2391 c0bc 8e34 b13c 92b3 8a3b
00000110: 1fb6 d5bc cfb8 643c 52f9 a53c a847 1abb
00000120: 1cbb d7bb cd9b 78bb 51ca 293c d2f7 cabc
00000130: b133 8fbc f9d6 4abc 677e 92bc 0cb2 b2bc
00000140: 4158 d73c fed2 26bc a393 c93a 68ad 4bbc
00000150: de19 8b3c 5687 443c b1ed 89bc 5271 ec3c
00000160: c420 fbbb 7806 893c cd28 90bc 978d 58ba
00000170: 0c42 8c3b fc04 1ebc 6ef8 5abc 043c fc3b
00000180: 1edf 4d3b 49fa 083c 23b1 d1bc dfda 2f3b
00000190: 7364 4dbc 06f5 f43c bb04 41bc 1451 d13b
000001a0: db4d 67bc a41c 143d dba1 c23c 6c33 0c3c
000001b0: 51ea 80bc d3f5 18bc 2495 9abc 43f6 e03b
000001c0: bc1a 903c 3c3a 40bc 2b90 acbc 2ef9 1abc
000001d0: 8396 ecbb 62c7 19bb f22a e13b c43e b33b
000001e0: 8775 8d3c 0afb bbbb 1843 c83b 6b26 b33c
000001f0: ece9 ba3c d306 983c 2971 993c d6ab de3c
00000200: 0216 133a e84c ffbb 511c fe3b cf6b b93c
00000210: b229 6a3c 68eb 32bc 48ff acbc c5b0 e03b
00000220: dd86 34bc 1ed8 f63c f42e 93ba 6037 703c
00000230: c626 803c d06c 75bb a731 763c b4f1 2bbc
00000240: e6e7 cc3c d3dd 4d3c 7597 5e3b fb34 a33c
00000250: 257f 9e3c 094a d43c f645 0f3a b995 44bc
00000260: 6857 99bc 1e87 4a3c d90f c13b 26a2 253c
00000270: 12cb cb3c 6ee2 a7bb 421f 7b3c 3fcf 943c
00000280: 6bc5 913c 6212 d23c 5b16 56bc 1234 0bbc
00000290: 5f86 a53c ec66 8dba c0b7 acbc e385 ef3a
000002a0: ba96 b3bc 3f82 86bc e0ef 40bb da86 b2bc
000002b0: 5c79 e33b 9a45 3abc 9b46 973a c03c de3a
000002c0: 7e88 583c e86d a53c b0e8 c5ba 0b8a a43c
000002d0: 9c15 f3bb f4e7 5e3b 7786 e03c 11b8 bebb
000002e0: 93dc 0abc f4ba a43b 2ca4 d13b 78fe 9cbb
000002f0: d618 7a3c 59cd 9ebb 45c2 783c 24b3 09bc
00000300: 8b5b 4cbb b24d 963c 4209 513c 8004 76bc
00000310: a7a3 f33b 288a 973c c547 45bc 1445 383a
00000320: 5bbb bdbb 5834 3a3c 7ea4 733c 53b0 0939
00000330: a146 b03b 3f62 cd3a 7cb1 54bc 9af6 973c
00000340: 2312 1939 9f7b 013d 9801 fe3c 563b 023d
00000350: 5124 933c 3b95 87bc 33d1 4c3b b049 e33b
00000360: c07d 8cbc 750b efbb a2b7 b83c 7e35 a1bc
00000370: 305d 19bc 6e20 57bc e87c 653c 7225 d1bc
00000380: d659 a93c d197 9e3c 7724 01bc 246e 8d3b
00000390: a6fd bb3c d4cc 8e3c d9e4 943c cf08 cbbb
000003a0: 825a ab3b 004f 16bc c1f4 86bc 1b1b 3dbc
000003b0: e2f1 12bc 5a64 f3ba c858 2bbc 07b0 d43c
000003c0: d505 99bc c742 23bc 1852 a6bc e8b9 173a
000003d0: a2cc c73a c376 2fbc 5109 7f3c 1b31 8cbb
000003e0: 9d91 87bc 4c79 46bb fc6c 2ebb a722 99bc
000003f0: 218d d33b 1573 d5bb 12dc fd3c 9d65 efbb

bias f4 [4]
0.012429576 0.012976367 -0.0009594963 0.009470941
00000000: 6ca5 4b3c d49a 543c b586 7bba 012c 1b3c
