model_concat.pt (torch_old, 210630 bytes, 3 tensors)

weight f4 [50, 903]
-0.009335913 0.021050572 -0.0192927 0.031808373 0.0067895427 -0.017172059 -0.015020122 -0.010001013
0.030704556 0.023401672 0.01839404 -0.018374419 0.0038233576 -0.017459318 0.0005943434 -0.0014949705
-0.008943695 0.014278447 -0.018634604 0.03900009 -0.0138884345 0.010203312 -0.022092411 0.019523019
0.02186805 0.009387926 -0.023484822 0.013931637 0.0048488863 0.0034271725 0.0053158808 0.01825287
0.020175966 -0.011000467 -0.0028755227 -0.05060624 0.010731335 -0.018742422 -0.042276338 -0.034881346
0.018836994 0.021255326 0.015820403 -0.036330078 -0.0042365305 -0.021120109 -0.009798196 -0.01680655
0.010196775 0.022012226 0.018748477 0.009498111 0.0024920048 -0.0047172974 -0.0019617875 -0.024849836
0.020425398 -0.027389381 0.018882968 0.0084022675 0.01412783 0.01835295 -0.008584692 -0.0021856932
-0.009646936 -0.0025070566 0.0054099057 0.027884273 -0.0030722795 0.029697329 -0.046394058 -0.0025559869
0.011518009 0.002045464 -0.020269996 -0.012707954 0.022977153 0.0037442583 0.025682472 0.011477899
0.0038516459 -0.0324141 0.015876224 -0.0032023145 0.0057001985 -0.032962643 -0.02858445 0.008974578
-0.020985967 -0.042743366 0.029934146 -0.0055281194 -0.008442441 0.014066932 0.012024842 -0.031043341
-0.016765662 -0.0090903025 -0.016831752 0.0003305046 -0.026432248 -0.002526876 0.027441178 -0.011238046
0.025163414 -0.011922363 0.0029788464 0.007416795 0.0011858786 0.023714682 0.005338995 0.011555785
-0.010133555 -0.031061988 0.0020255628 -0.0111992955 0.021926777 -0.0040111574 -0.004727433 -0.003980628
0.0035518478 -0.019919124 0.0010339034 3.2264186e-05 -0.007181405 -0.02913168 0.016890265 -0.006594641
0.02438921 0.019709982 -0.013743412 -0.025849132 -0.01630879 0.00209916 -0.024202796 0.0031556797
0.012815123 0.0049321363 0.043376744 -0.0024665897 0.01890684 0.02710637 -0.012578364 -0.030681958
0.01893049 0.041815326 0.031093452 0.034958724 -0.00884201 0.027893133 0.046588488 -0.01887656
0.011510316 0.030842872 -0.028876908 -0.0012937078 0.016854273 0.016098717 -0.011266885 -0.013688734
-0.017503146 0.010956267 -0.0016466029 -0.022113204 -0.026744287 -0.009541428 0.0031427715 -0.029442074
0.04254901 -0.030169807 0.0029975965 -0.0021257051 0.034087647 0.016206762 -0.008237385 0.010458855
0.020064572 0.012067556 -0.01751875 -0.029240033 -0.012350923 -0.019763961 -0.024154812 0.010375245
-0.018365314 -0.018090818 -0.0144220395 -0.012937765 -0.0014318423 0.019105798 -0.021008676 0.017085683
0.022147277 0.016759824 -0.01731548 -0.012285814 -0.016277354 0.028019452 -0.016485285 -0.022877518
-0.0025282868 -0.010946999 -0.038923547 0.012909398 0.001274673 -0.045897625 -0.0057529174 0.022475
0.0275396 0.011520008 -0.0046244543 -0.02726175 -0.016547509 -0.01697119 -0.012166244 -0.013937762
0.024341065 0.008143958 -0.023911698 0.005223025 0.02193012 0.0040674014 0.0049915407 0.012773358
0.027588682 0.018972415 0.009502351 -0.0123285 0.020123698 -0.024493054 0.00020126447 -0.018296693
-0.012266073 0.00053698785 -0.021576554 0.0039430805 0.016228737 -0.018858114 -0.020399429 -0.009443722
0.014228216 -0.023098525 0.013040552 -0.0141770905 -0.005793907 0.000414869 -0.0051601892 0.028957166
0.0102835875 0.021800743 0.03229009 -0.025836017 -0.02619543 -0.017299239 -0.0048416057 -0.009846536
00000000: a8f5 18bc 4072 ac3c b90b 9ebc 7f49 023d
00000010: d07a de3b 6bac 8cbc f516 76bc 4adb 23bc
00000020: 1f88 fb3c ddb4 bf3c 19af 963c f385 96bc
00000030: 4c91 7a3b d806 8fbc b6cd 1b3a e3f2 c3ba
00000040: 9388 12bc 26f0 693c 99a7 98bc 8fbe 1f3d
00000050: 518c 63bc cb2b 273c 25fb b4bc bdee 9f3c
00000060: a024 b33c d1cf 193c 3e63 c0bc 8541 643c
00000070: 68e3 9e3b 6a9a 603b d730 ae3b 0b87 953c
00000080: 1148 a53c 4e3b 34bc 4473 3cbb 7d48 4fbd
00000090: 7bd2 2f3c b589 99bc f429 2dbd bedf 0ebd
000000a0: 0a50 9a3c a61f ae3c ca99 813c d9ce 14bd
000000b0: 98d2 8abb 1404 adbc 9d88 20bc e4ad 89bc
000000c0: 6010 273c fc52 b43c 6896 993c f79d 1b3c
000000d0: e750 233b 8f93 9abb 5591 00bb e291 cbbc
000000e0: 2a53 a73c b25f e0bc 74b0 9a3c aaa9 093c
000000f0: 6a78 673c ed58 963c cfa6 0cbc d93d 0fbb
00000100: 2f0e 1ebc 6e4d 24bb 9445 b13b 8f6d e43c
00000110: 4c58 49bb d047 f33c b207 3ebd 5882 27bb
00000120: 08b6 3c3c 310d 063b 430d a6bc 0635 50bc
00000130: 953a bc3c 3b62 753b 0c64 d23c cc0d 3c3c
00000140: e56b 7c3b a6c4 04bd db0e 823c ecdd 51bb
00000150: bbc8 ba3b d603 07bd f029 eabc 1c0a 133c
00000160: c3ea abbc ab13 2fbd 7438 f53c 3a25 b5bb
00000170: 2a52 0abc fd78 663c d803 453c 9b4e febc
00000180: 2458 89bc 7eef 14bc bee2 89bc 9447 ad39
00000190: 7188 d8bc f299 25bb 52cc e03c c81f 38bc
000001a0: 8123 ce3c 0456 43bc c038 433b 9608 f33b
000001b0: 7c6f 9b3a 4b45 c23c bcf2 ae3b 7a54 3d3c
000001c0: 3607 26bc b675 febc 4ebf 043b 407d 37bc
000001d0: c99f b33c 0770 83bb 95e8 9abb ee6f 82bb
000001e0: 1ec6 683b 6e2d a3bc 0b84 873a 6853 0738
000001f0: fe51 ebbb 90a5 eebc 745d 8a3c dc17 d8bb
00000200: e1cb c73c d476 a13c 0c2c 61bc 8fc1 d3bc
00000210: 039a 85bc 1092 093b f144 c6bc 85cf 4e3b
00000220: 86f6 513c c29d a13b d0ab 313d 82a6 21bb
00000230: 84e2 9a3c 2e0e de3c 7c15 4ebc bb58 fbbc
00000240: 1d14 9b3c 8c46 2b3d b2b7 fe3c e130 0f3d
00000250: 14de 10bc 2480 e43c 92d3 3e3d 04a3 9abc
00000260: c495 3c3c 31aa fc3c 448f ecbc a191 a9ba
00000270: f911 8a3c 75e1 833c be98 38bc b646 60bc
00000280: c262 8fbc ea81 333c d3d2 d7ba c026 b5bc
00000290: d616 dbbc a653 1cbc f5f6 4d3b 8130 f1bc
000002a0: df47 2e3d ac26 f7bc 5373 443b 6a4f 0bbb
000002b0: 7d9f 0b3d 0bc4 843c 19f6 06bc 9e5b 2b3c
000002c0: 755e a43c 00b7 453c 7b83 8fbc cb88 efbc
000002d0: 875b 4abc 08e8 a1bc 50e0 c5bc eefc 293c
000002e0: db72 96bc 3233 94bc 6b4a 6cbc ebf8 53bc
000002f0: a8ac bbba c383 9c3c 631a acbc 46f7 8b3c
00000300: 356e b53c e64b 893c 32d9 8dbc 704a 49bc
00000310: 1658 85bc 0d89 e53c 260c 87bc a269 bbbc
00000320: 9db1 25bb 0b5b 33bc 4c6e 1fbd f181 533c
00000330: ee12 a73a 26ff 3bbd f882 bcbb 7e1d b83c
00000340: ba9a e13c 6abe 3c3c bc88 97bb 0954 dfbc
00000350: a48e 87bc 2a07 8bbc ed54 47bc 365b 64bc
00000360: ea66 c73c 3c6e 053c 77e2 c3bc e925 ab3b
00000370: cca6 b33c d647 853b 1490 a33b 5947 513c
00000380: a901 e23c 0a6c 9b3c c0af 1b3c 7afd 49bc
00000390: 74da a43c a8a5 c8bc 850a 5339 f2e2 95bc
000003a0: a4f7 48bc a5c4 0c3a 50c1 b0bc f534 813b
000003b0: 21f2 843c 557c 9abc b41c a7bc d7b9 1abc
000003c0: 771d 693c 1e39 bdbc 0aa8 553c 0747 68bc
000003d0: d1da bdbb c682 d939 ce16 a9bb 9437 ed3c
000003e0: 7e7c 283c 7997 b23c 9d42 043d 0ea6 d3bc
000003f0: cc97 d6bc 22b7 8dbc 55a6 9ebb 5e53 21bc

bias f4 [50]
0.0154206995 -0.0048166146 -0.02648806 -0.030100908 -0.009010081 -0.026715161 -0.011835802 0.025491621
0.034235258 0.0046273423 0.02937718 -0.00012984948 -0.026149925 -0.0343068 0.0033841927 0.02369558
0.033203438 -0.021289418 -0.005422847 -0.032118604 0.003925449 -0.002982976 0.012303662 -0.00520724
0.034080166 -0.0006042778 -0.008885186 0.017349828 0.035728812 0.025571743 -0.0027531974 -0.0054749786
0.032116674 0.028137103 -0.026812416 -0.011792359 0.017909521 0.018467842 -0.027335865 -0.0011787879
0.023811877 -0.002535429 0.023750318 -0.00045276497 -0.030150335 -0.027003806 -0.00061442767 0.012954857
-0.027630875 0.03873523
00000000: 1aa7 7c3c b1d4 9dbb 7dfd d8bc 2e96 f6bc
00000010: 059f 13bc c1d9 dabc f4ea 41bc ced3 d03c
00000020: 453a 0c3d f6a0 973b 69a8 f03c 3428 08b9
00000030: 5e38 d6bc 4a85 0cbd 55c9 5d3b 3c1d c23c
00000040: 5400 083d 2567 aebc 23b2 b1bb cc8e 03bd
00000050: 0ea1 803b 087e 43bb 4c95 493c 7fa1 aabb
00000060: a597 0b3d 6668 1eba 2c93 11bc 3a21 8e3c
00000070: 6058 123d d57b d13c fd6e 34bb 7367 b3bb
00000080: c68c 033d c87f e63c b6a5 dbbc bd34 41bc
00000090: fdb6 923c df49 973c 77ef dfbc 8f81 9aba
000000a0: 2011 c33c 7129 26bb 0790 c23c 1661 edb9
000000b0: d6fd f6bc 1637 ddbc 8b11 21ba 9c40 543c
000000c0: 255a e2bc d5a8 1e3d

weight f4 [4, 1300]
0.021795677 0.01611513 -0.010584513 -0.014797853 -0.0060738847 0.0031398972 0.0035540536 -0.02503012
-0.030364843 -0.027373368 0.021133116 -0.019010695 0.018547311 0.022587512 0.017954338 -0.021642383
-0.0070230057 0.01780144 -0.028643621 -0.0021979287 0.018060746 -0.021952558 0.002810526 0.012434405
-0.0009884461 0.025653137 0.020642411 -0.02692739 0.010779034 -0.013572678 -0.011378531 0.016474025
-0.014739426 -0.023855472 -0.0047320314 -0.021289991 0.020395642 -0.0060688094 -0.019957246 -0.016661694
0.012026918 -0.017298635 -0.01851689 0.010446 0.009076323 0.019014124 -0.01411536 -0.02531283
0.0005862526 -0.0085539315 -0.029587701 0.013959974 -0.01525923 -0.01815594 -0.0019669996 -0.011395005
0.005225051 -0.020211829 -0.0017549434 0.010737782 -0.0050682635 -0.014641493 -0.0015783595 0.02045502
-0.0011758459 -0.007621147 0.0058968854 -0.025000682 -0.021724813 -0.017586082 0.021888688 -0.01182234
0.018597903 -0.018864451 -0.02073653 -0.018772414 0.019047823 0.015159616 -0.0054918774 -0.019100938
-0.009418197 0.0124075245 0.001603732 0.007012527 0.0043063103 -0.014700516 -0.027871378 -0.003059269
0.01314305 0.007239685 -0.007856306 0.006880122 0.006089828 -0.025293926 0.00013245436 0.027228706
-0.028730333 -0.020374423 0.014233171 -0.013594642 -0.029491492 0.0045875646 0.0073802616 0.004536525
-0.004128677 0.0040967218 -0.0052192444 -0.024313984 0.009366692 0.021967618 0.012915708 0.009664799
0.010011946 -0.017426092 -0.0016860508 0.01722623 -0.0010830363 -0.005342512 0.015910093 0.01847985
0.014232916 -0.020377496 0.0057864473 0.025579331 0.018694108 -0.0046087815 -0.0047653085 0.017716002
0.0060171788 0.017540192 0.0036002751 0.015825612 -0.00859141 -0.016264837 0.011654329 -0.02905844
-0.022791341 -0.023009915 -0.0035430107 -0.028934754 -0.017628152 0.007489815 -0.011868976 0.003698985
-0.023274228 -0.027604852 0.009706776 0.008495248 -0.029644353 0.0005708925 -0.016048433 0.014460701
-0.024741355 -0.012042096 -0.019253243 0.02214161 -0.01027094 0.0036880942 0.0042357747 0.005410947
-0.025206324 -0.017844986 0.021451158 -0.004130367 0.010094144 -0.0030886815 0.0032944123 0.019324271
0.009210203 -0.0205679 0.0065097217 0.009128551 0.0044749924 -0.0023757985 -0.028866712 -0.012877057
0.010430642 -0.0011588114 -0.028747993 -0.0012644394 -0.02152069 0.0033787566 0.023738662 -0.0038401156
-0.018566437 0.008955583 -0.005855985 0.020472847 0.0073834057 -0.009251857 -0.020220498 0.0145660415
-0.010409883 -0.024936292 -0.023099294 -0.0026573036 -0.009160005 -0.010722404 -0.02104283 0.013563535
-0.016765816 -0.0018053055 -0.012443902 0.024500493 -0.02375289 0.0018734641 -0.015764821 0.0074191783
0.000874444 0.011715636 0.012446673 0.01916945 -0.014187508 -0.021939658 0.004285185 -0.0035632616
-0.025187116 -0.00042617766 -0.0304261 0.0088413395 -0.0150713585 0.0044179605 0.003879509 0.019008812
-0.02545279 -0.015879685 -0.0071296603 -0.0016786369 -0.027536314 0.019132819 -0.023412494 -0.022314735
0.023295045 -0.026981039 0.02320792 -0.009393356 -0.01066337 0.016721636 -0.011162171 0.0085397065
-0.016328955 -0.0071839686 -0.015029034 0.022683693 0.0013682606 0.0024923359 -0.023035381 -0.025942868
-0.0068855993 0.019452197 -0.022848597 0.022380993 0.0016603465 0.023130858 0.023399556 -0.012251205
00000000: d98c b23c e103 843c aa6a 2dbc b272 72bc
00000010: 7007 c7bb bcc6 4d3b 20eb 683b f70b cdbc
00000020: b1bf f8bc 1d3e e0bc 5b1f ad3c 51bc 9bbc
00000030: 88f0 973c 7209 b93c fa14 933c 5e4b b1bc
00000040: 3e21 e6bb 53d4 913c 07a6 eabc 200b 10bb
00000050: 21f4 933c dad5 b3bc cd30 383b adb9 4b3c
00000060: bf8e 81ba 8726 d23c 461a a93c d496 dcbc
00000070: 8c9a 303c f05f 5ebc 056d 3abc 89f4 863c
00000080: a27d 71bc 8d6c c3bc 280f 9bbb 5968 aebc
00000090: c314 a73c dddc c6bb 617d a3bc 1b7e 88bc
000000a0: 8d0c 453c deb5 8dbc bcb0 97bc b325 2b3c
000000b0: dcb4 143c 82c3 9b3c 1c44 67bc da5c cfbc
000000c0: bfae 193a ca25 0cbc e861 f2bc 60b8 643c
000000d0: d901 7abc c4bb 94bc c7e8 00bb 1db2 3abc
000000e0: e836 ab3b 4793 a5bc 2106 e6ba 86ed 2f3c
000000f0: ad13 a6bb dfe2 6fbc f5e0 ceba 4991 a73c
00000100: d71e 9aba d1ba f9bb a93a c13b 3bce ccbc
00000110: 3cf8 b1bc b010 90bc e84f b33c 7db2 41bc
00000120: a15a 983c 9f89 9abc a8df a9bc 9bc8 99bc
00000130: 2e0a 9c3c 0a60 783c 35f5 b3bb 9279 9cbc
00000140: c84e 1abc ee48 4b3c 5134 d23a 57c9 e53b
00000150: f31b 8d3b 6fda 70bc 8452 e4bc 047e 48bb
00000160: f255 573c e13a ed3b bcb7 00bc a572 e13b
00000170: 2e8d c73b 3535 cfbc 72e3 0a39 bc0e df3c
00000180: e05b ebbc 43e8 a6bc 3f32 693c 10bc 5ebc
00000190: 2498 f1bc 4853 963b 1fd6 f13b 21a7 943b
000001a0: da49 87bb cb3d 863b 3206 abbb 1f2e c7bc
000001b0: c176 193c 6ff5 b33c 689c 533c 1b59 1e3c
000001c0: 2509 243c 2ac1 8ebc 7afe dcba 061e 8d3c
000001d0: abf4 8dba 3d10 afbb e255 823c 0e63 973c
000001e0: 2d31 693c b5ee a6bc 3d9c bd3b bf8b d13c
000001f0: 6324 993c 4305 97bb 4e26 9cbb 2621 913c
00000200: c12b c53b 73b0 8f3c 98f2 6b3b b7a4 813c
00000210: fcc2 0cbc d63d 85bc ccf1 3e3c f70b eebc
00000220: e8b4 babc 4a7f bcbc db31 68bb 9408 edbc
00000230: ea68 90bc 1f6d f53b 1876 42bc ac6a 723b
00000240: 98a9 bebc 9223 e2bc 2b09 1f3c a72f 0b3c
00000250: b7d8 f2bc f2a7 153a 0178 83bc 93ec 6c3c
00000260: 62ae cabc 364c 45bc fab8 9dbc 5262 b53c
00000270: 7247 28bc f4b3 713b 41cc 8a3b 504e b13b
00000280: 7e7d cebc a62f 92bc 57ba af3c 0858 87bb
00000290: e961 253c 7a6b 4abb 11e7 573b ef4d 9e3c
000002a0: 64e6 163c 037e a8bc 814f d53b eb8f 153c
000002b0: f5a2 923b 49b3 1bbb e279 ecbc 4bfa 52bc
000002c0: 49e5 2a3c 42e3 97ba e980 ebbc 8cbb a5ba
000002d0: 284c b0bc 216e 5d3b 9577 c23c 73aa 7bbb
000002e0: a418 98bc 70ba 123c 90e3 bfbb acb6 a73c
000002f0: 7ff0 f13b 1a95 17bc 75a5 a5bc 68a6 6e3c
00000300: 378e 2abc 3247 ccbc bb3a bdbc 2826 2ebb
00000310: d813 16bc 06ad 2fbc 0362 acbc 9739 5e3c
00000320: 7758 89bc 00a0 ecba 82e1 4bbc 42b5 c83c
00000330: 6c95 c2bc 068f f53a 3a25 81bc 941c f33b
00000340: f23a 653a f0f2 3f3c 21ed 4b3c 4009 9d3c
00000350: b972 68bc ccba b3bc bd6a 8c3b 9c85 69bb
00000360: 3655 cebc 9970 dfb9 2840 f9bc 44db 103c
00000370: dced 76bc 8ac4 903b 5c3f 7e3b 5eb8 9b3c
00000380: 5f82 d0bc 1d16 82bc ed9f e9bb b505 dcba
00000390: d693 e1bc 6ebc 9c3c 8fcb bfbc 64cd b6bc
000003a0: 40d5 be3c 5707 ddbc 891e be3c 97e6 19bc
000003b0: 6ab5 2ebc d0fb 883c 8ae1 36bc 20ea 0b3c
000003c0: 4dc4 85bc 7f67 ebbb 563c 76bc 27d3 b93c
000003d0: 3557 b33a 7556 233b b2b4 bcbc 2386 d4bc
000003e0: 98a0 e1bb 375a 9f3c fb2c bbbc 5858 b73c
000003f0: fc9f d93a ed7c bd3c 6db0 bf3c 47b9 48bc
