model_features.pt (torch_old, 191385 bytes, 3 tensors)

weight f4 [50, 903]
000000 92 90 13 3c be df cc bb 49 9a 08 bd e8 c8 be bc
       0.009006636 -0.006252258 -0.033350263 -0.023289159
000010 19 66 24 bd 01 0a a6 bb bd d0 f9 bc b2 d7 0a 3d
       -0.04013643 -0.0050671105 -0.030495042 0.03389711
000020 3a dc fd bc f8 2b 07 bc e5 25 32 3c 18 b0 0d bd
       -0.030988801 -0.008250229 0.010873293 -0.034591764
000030 9d c4 a8 3c 72 82 a6 3c 02 af 03 bd fe 74 a2 bb
       0.020601565 0.020325873 -0.032149322 -0.004957794
000040 ab b2 a8 3c 04 48 2f bb 24 e3 20 bd 70 f2 e0 bc
       0.020593008 -0.0026745806 -0.03927912 -0.027459353
000050 e1 7d 90 bc 74 48 21 3b 96 8a c5 3c e3 f3 06 bd
       -0.017638149 0.0024609836 0.024113934 -0.032947432
000060 dc b8 da bc 96 7d 9e 3c e3 d0 98 bc e4 90 25 bc
       -0.026699476 0.019346993 -0.018654292 -0.010105345
000070 38 9b 15 bc 95 a7 97 3c 5e 6d b3 3c e7 95 2a bd
       -0.009131245 0.018512527 0.021902736 -0.041646864
000080 e2 db 0e 3c 1b e5 ac 3c b2 e9 f5 bc b1 c4 8f bb
       0.008719416 0.02110534 -0.030018661 -0.004387461
000090 c9 0f b5 bc f1 38 82 3b 6a 44 07 3d 0f aa 78 3c
       -0.022102254 0.003974073 0.03302423 0.015177264
0000a0 d4 ee 36 3c 66 49 94 bc f7 7b 73 bc dd c1 fa 3b
       0.0111653395 -0.018101405 -0.0148610985 0.007652505
0000b0 7b ba 0c 3b 5b 52 2d bd 19 b6 32 3d be 27 1f bd
       0.0021473456 -0.04231487 0.043630693 -0.03885626
0000c0 b0 fc 9f 3c c0 e6 0e bd 91 3b 70 3c 66 4a 05 3d
       0.01952967 -0.03488803 0.014662639 0.032541655
0000d0 c1 3e 16 3d fc af 66 3c d4 78 d2 3c 2c 57 9d 3b
       0.03668094 0.014080044 0.025692381 0.0048016515
0000e0 35 fd 44 3c 37 36 f2 bb d7 ca 3e bc 17 7e e8 b8
       0.01202326 -0.007391717 -0.0116450405 -0.00011086108
0000f0 89 3f a4 bc 0d a4 ef 3c 2a dc 5f bc 14 55 07 bd
       -0.020049827 0.02925303 -0.013663331 -0.03304012
000100 13 cf 85 3c 7a 60 19 3c bc 2d e3 bc 83 01 39 3c
       0.016334092 0.009361381 -0.027731769 0.011291864
000110 e5 68 e8 3b 6e a8 43 3b d7 cc c6 3c 3a 49 90 39
       0.0070925825 0.002985503 0.024267597 0.00027520378
000120 9b 01 0d 3c d8 a0 5a 3b bf d8 92 bc 3a d7 66 bc
       0.00860634 0.003336003 -0.017925618 -0.0140894
000130 dc b8 03 3c 5d 62 05 bd 99 c2 2b bc a1 59 1a 3c
       0.008039679 -0.03256451 -0.010483407 0.009420783
000140 ea 57 35 3c 15 9b b3 ba ae 3d 84 3b fa 44 15 3d
       0.011068324 -0.0013702834 0.004035673 0.036442734
000150 89 12 fb bc cb 94 59 3c cf ff a9 bc 8d ed 5b 3b
       -0.030648487 0.013280104 -0.020751862 0.003355834
000160 89 41 85 bb 13 59 db bc 22 1b b8 3c e5 9c b8 3c
       -0.0040666503 -0.026775872 0.022473875 0.02253575
000170 bc 74 b7 bb b3 b4 8b 3c c9 68 d5 bb 20 2e 6c 3b
       -0.0055986326 0.017053938 -0.0065127355 0.0036038235
000180 5c d8 ea bb c5 6b e1 bc 7c d3 3c bc 0e 84 bb bc
       -0.0071669053 -0.027517209 -0.011525031 -0.022890117
000190 25 c6 da 3b 93 bc cd 3c 75 59 0d 3c ea 60 3e bc
       0.0066764527 0.025114333 0.008627285 -0.011619786
0001a0 80 15 ed bb b5 13 85 3c 50 1a 9b 3b 8b 37 a5 3c
       -0.007235229 0.016244749 0.0047333613 0.020168087
0001b0 a8 fa c5 bb 02 c6 14 bd 72 e6 c3 bc b6 d3 65 3c
       -0.0060418434 -0.036321647 -0.023913596 0.014027527
0001c0 d9 36 94 bc 68 63 c4 3c 78 f6 35 bc 69 a5 e8 ba
       -0.01809256 0.023973182 -0.011106126 -0.0017749491
0001d0 6e 9d 86 bb 6a 23 a7 3b 58 1c 51 3c 7d 0b b9 3c
       -0.0041081225 0.005100657 0.012763105 0.022588486
0001e0 c3 3d c2 3c 72 c1 d1 3b 47 0c 25 bc 97 7b c5 3c
       0.02371109 0.0064012343 -0.010073728 0.024106784
0001f0 d1 86 14 bc 43 9e 95 3c 50 f4 19 3d 59 31 0c bd
       -0.009065346 0.018263942 0.03758651 -0.03422675
000200 57 62 a5 bb 5b 38 12 bd 05 1c d7 bb 4e 8c 0a 3d
       -0.0050471234 -0.035698276 -0.0065646195 0.03382521
000210 db 97 60 bc fd e2 c9 bc c9 2d bb 3b 37 f4 cb bc
       -0.01370808 -0.02464437 0.005712245 -0.024896724
000220 dd 83 bd 3c a5 e9 43 bc f1 78 09 3c 6b ab d0 bc
       0.023134166 -0.011957561 0.008390651 -0.025472363
000230 96 08 df bc f2 22 11 3d ad bb 92 bb bd b9 ac 3c
       -0.027225774 0.035433717 -0.004477939 0.02108466
000240 e4 e0 d9 3c 05 57 6b bc 7a e3 bd bc 20 e4 08 3d
       0.026596494 -0.014364009 -0.023179758 0.033420682
000250 7f 9d 95 bc 41 37 3c bc 8c c1 8e bc 1f 3a 53 bc
       -0.018263577 -0.011487783 -0.017426275 -0.012892275
000260 2e 50 8f 3c 14 21 40 3c 98 da ae bc 07 c7 ba 3c
       0.017494287 0.011726636 -0.021344468 0.022799982
000270 8c d1 59 bc 30 28 3a 3c 6d 00 2a 3d d3 19 73 bc
       -0.013294589 0.0113621205 0.041504312 -0.0148377
000280 72 b5 af bc e1 b0 bf bb 3f 53 65 bc 01 61 d0 3c
       -0.021448825 -0.005849943 -0.013996898 0.02543688
000290 31 6e 1d 3c c6 99 ba 3b e8 7f 56 bc 1c 3a 2d 3c
       0.009608791 0.0056946008 -0.013092019 0.010572936
0002a0 b5 9c 8e 3c 72 fc 03 3c 54 6d 85 bc 35 55 7d 3c
       0.017408708 0.008055793 -0.016287483 0.0154622095
0002b0 7f eb a9 bb 29 5e c2 bc 3f c1 75 3b ab 50 f9 3c
       -0.005185544 -0.02372654 0.0037499217 0.030433973
0002c0 f3 69 28 3d 10 54 ef bc b3 e4 ef 3c 74 13 04 bc
       0.041116666 -0.029214889 0.029283857 -0.008061279
0002d0 54 58 a1 3c 2f dc cd 3c 37 93 3e bd c1 cf f4 3b
       0.019695438 0.025129406 -0.046527114 0.0074710553
0002e0 ce 4e 92 3c 1e 3f 99 bc cc cb 60 bc d4 fe 17 3d
       0.017859843 -0.018706854 -0.013720464 0.037108257
0002f0 a7 ee e3 bc 3f df a8 3c 05 87 08 3d f4 fb 5b 3b
       -0.02782376 0.020614265 0.03333189 0.0033566924
000300 5d 18 e4 3c 96 86 3a 3a 86 3c d7 3c dc 34 36 bc
       0.027843649 0.0007115392 0.026273977 -0.011121001
000310 c1 84 11 bc 6d f3 18 bd d6 41 99 bb b1 ee 21 3d
       -0.008881749 -0.037341524 -0.0046770377 0.039534274
000320 72 50 c6 3c 59 8e 07 3c 57 3d 03 3c e0 63 bd bc
       0.024208281 0.008273684 0.00801023 -0.023118913
000330 73 27 06 3b 61 c3 f2 3b 80 8b cb 3c 4c da 8d 3c
       0.002047029 0.007408545 0.024846792 0.017316006
000340 ef ae 19 3d 8a 8d 5b bc 97 94 54 3c df c7 18 3d
       0.037520345 -0.013400445 0.01297488 0.037299987
000350 7c 66 bc bc 77 2f ef bc d6 7a ab bc 49 4e 24 bd
       -0.022998087 -0.029197438 -0.020932596 -0.04011372
000360 a1 fe a0 ba f6 2b 3e 3a 52 62 c6 bc a2 66 05 3c
       -0.0012282917 0.00072544755 -0.024216805 0.008142145
000370 51 13 c7 bc 58 e4 a4 3c 84 9e bf 3a 66 f6 dd bc
       -0.024301203 0.020128414 0.0014619385 -0.027095031
000380 25 36 84 3b 91 db 67 3c 08 c8 2d bc 29 ce fa bc
       0.004034775 0.01415147 -0.010606773 -0.030615883
000390 5b 1a 91 bc 90 aa 14 3d 7f 7e 9b bb c5 1b 2a 3c
       -0.017712763 0.036295474 -0.004745304 0.010382597
0003a0 61 2b 9b bc 4a 46 1a 3d ae d0 6a 3c 65 7f 19 bd
       -0.018941583 0.03766469 0.01433198 -0.03747501
0003b0 c6 3d 12 bd cf cd a5 3c 28 17 56 3b ff 2b 18 bc
       -0.035703443 0.020239739 0.003266761 -0.009287833
0003c0 9c f3 37 3b 69 fa 96 bc 01 bf ab 3c 88 b7 e6 bc
       0.0028068786 -0.018429952 0.020965101 -0.028163686
0003d0 51 5b 2a bc 33 bb c5 3c 55 58 2e 3d 38 2f bd 3c
       -0.010397748 0.024137115 0.04256471 0.023093805
0003e0 02 1a 14 3c 02 4b 1a 3d 09 ef e7 3b 91 fd 36 38
       0.009039404 0.03766919 0.0070780558 4.3628334e-05
0003f0 e8 90 f3 3c 8d 4c d6 bc 3d b4 4b 3d 1f 85 ea bb
       0.029732183 -0.02615955 0.049732435 -0.0071569826

bias f4 [50]
000000 e6 b1 4b 3b 78 8b e2 bc de 1b 04 3d b8 10 2a 3c
       0.0031081378 -0.027654395 0.03225314 0.010379963
000010 44 bc 10 3d f8 c2 96 bc 49 51 8c bc 0d 02 81 ba
       0.035335794 -0.018403515 -0.017128604 -0.000984253
000020 b0 d5 c8 bc 00 10 7f ba 29 58 3f bc 5f 27 93 b8
       -0.024515957 -0.0009729862 -0.011678734 -7.01684e-05
000030 9f 17 f7 3b 56 d6 30 bc c4 e5 65 ba 12 bd 08 3c
       0.0075406577 -0.010793289 -0.00087698945 0.008345859
000040 f0 1c 02 bc 0a ec 5c 3c cd 4d 9a bb 47 72 86 bc
       -0.00794147 0.0134840105 -0.0047089816 -0.016411914
000050 68 11 5d bc 44 61 0f ba 2c e6 16 bc 61 fa ea 3c
       -0.0134929195 -0.0005469511 -0.009210151 0.028683843
000060 80 56 a7 bc fc 0d b1 ba 5b b3 f0 bc c0 17 13 3c
       -0.020426989 -0.0013508196 -0.029382398 0.00897783
000070 8a 85 99 bc 51 0b 96 bc 00 03 03 bb 9c 42 85 ba
       -0.018740434 -0.018315943 -0.0019990802 -0.0010166946
000080 29 d1 96 3c 05 20 e3 3b 76 54 bb 3a 88 16 4c 3c
       0.018410282 0.0069313073 0.0014292139 0.012456544
000090 c2 56 8e 3a d4 e8 9e 3b ae 2f b6 3c a3 b1 5d bc
       0.0010859596 0.0048495326 0.022239532 -0.013531121
0000a0 74 ca fb 3c a0 ef 97 bc e9 10 13 ba 7a 3f a3 bc
       0.030736186 -0.01854688 -0.0005610125 -0.019927729
0000b0 ed 02 0d 3c 88 ba 63 3c 60 33 c0 bb 35 c9 18 3c
       0.008606655 0.013899453 -0.0058654994 0.009325315
0000c0 b4 31 af 3c 45 1c 32 3c
       0.021386005 0.010870998

weight f4 [4, 100]
000000 60 da c2 3d 00 4d af bd 43 81 2a bd ba 8f 9d bd
       0.09514308 -0.085596085 -0.04162718 -0.07693429
000010 f5 03 d2 3a f2 46 3c bd f6 4f 9b bd be 30 ee 3b
       0.0016022908 -0.045966096 -0.07583611 0.007268994
000020 10 f0 84 bd 9b 40 84 3d d5 c9 6d b9 69 1a 62 3d
       -0.06491101 0.06457635 -0.0002267727 0.055200968
000030 2f 71 0a bd 97 ba a4 3d b6 3d 72 3c 03 24 bc 3d
       -0.033799347 0.08043402 0.014785221 0.09186556
000040 d5 de bf 3c 9d a0 ba ba b7 92 c5 3c a3 11 5f bc
       0.023421684 -0.001423854 0.02411781 -0.013615045
000050 1e 7d 95 3c 0e 4f b8 3b 63 58 8d bd f4 b7 a3 bd
       0.018248137 0.0056246584 -0.06901624 -0.07994071
000060 88 05 b9 bd 25 1d 8c bd 40 b6 99 3c 15 da 54 3d
       -0.09034258 -0.068414964 0.018763661 0.05196579
000070 ca e3 a7 bd 2c 2f ee 3b 4d 7d a9 bd e6 f0 9b bc
       -0.08197744 0.007268807 -0.08275852 -0.019035768
000080 44 7c 1e bd 49 47 c6 bc 3d 8c a6 3d 61 f7 ea 3c
       -0.038692728 -0.024203913 0.08132217 0.028682413
000090 4c b4 9c bc 81 44 8c bd ec d5 b7 bd 58 cd 93 3c
       -0.019128941 -0.068490036 -0.08976349 0.018042251
0000a0 dc b3 a6 bd 01 5e 0c 3d 9d 1f e3 bc d2 9f 18 3d
       -0.08139774 0.034269337 -0.027725035 0.03726179
0000b0 ce 28 1f 3c 64 18 df 3c 71 a5 c9 3d 55 4e a9 3d
       0.009714318 0.02723331 0.098460086 0.08266894
0000c0 46 7b b8 3d d9 0c 03 3d 80 97 a0 3d 60 a7 85 bd
       0.090078875 0.031994674 0.07841396 -0.06526065
0000d0 5b dc 7c 3c e7 e3 9b bd 63 43 93 bd c4 d1 f0 3c
       0.015433396 -0.07611828 -0.07190587 0.029396899
0000e0 72 8b 8f 3d f9 87 66 bd ff f5 03 3d 56 15 a2 bd
       0.07009019 -0.056282017 0.032217022 -0.07914226
0000f0 d7 9b a8 bc 8e e1 97 bd c3 81 67 3c d7 ce 96 3d
       -0.020582123 -0.07416068 0.014130059 0.0736367
000100 62 55 a4 3d 8b b4 93 3d cd 4c 31 3d f8 13 04 3d
       0.08024098 0.0721217 0.043286134 0.032245606
000110 80 0f c7 3d 31 1a 43 bd 57 cc 78 3d aa 94 5a bd
       0.09719753 -0.0476324 0.06074175 -0.053364433
000120 f6 11 39 3d 32 1c 9d 3d 2b d9 a2 3d 1e 02 b6 3c
       0.045183145 0.076713935 0.07951578 0.022217806
000130 a5 68 8e bd c5 3d ab 3d 6a cd be bd eb 41 8a 3c
       -0.06953553 0.08361391 -0.093165234 0.016877135
000140 fb 9d af 3d e3 19 bc bd 74 82 53 bd 69 be d3 bd
       0.08575054 -0.09184625 -0.05163808 -0.10339052
000150 5f 68 5b bd 3a d4 9e bc 07 26 60 3d a0 ac a6 bd
       -0.053566333 -0.019388307 0.054723766 -0.08138394
000160 70 02 3d bd f6 6f b7 3d 34 cd 95 bd 1c 5f 8e bd
       -0.046144903 0.08956902 -0.0731453 -0.069517344
000170 bc f5 5f 3d 5f 38 b7 3d 86 b4 90 3d ea 73 81 3d
       0.05467771 0.08946299 0.07065682 0.06320937
000180 67 4e c5 3d cd 15 ae 3d d6 25 bd bd 22 c2 b6 bc
       0.09634095 0.08500252 -0.09235732 -0.022309367
000190 61 e7 8d 3c 10 90 b1 bd e0 0b 19 bd 13 be eb bc
       0.017322244 -0.08670056 -0.03736484 -0.028777158
0001a0 d3 16 a9 3d 36 44 a7 bd 55 0c 96 3d 4f 3f 72 3d
       0.082563065 -0.08167307 0.07326571 0.059142407
0001b0 1f 59 b1 3d 4c fe 9a 3c 30 a1 0c bd 3e 1b ad bd
       0.086595766 0.018920086 -0.034333408 -0.08452462
0001c0 e0 c1 2b bd 0e 31 26 3d 22 cc 24 3c a3 64 c1 bd
       -0.04193294 0.040574126 0.010058435 -0.09443023
0001d0 99 5b 8d 3d 46 42 cd bc 7f df 94 bd 1f 36 d3 3d
       0.069022365 -0.025056016 -0.07269191 0.10313057
0001e0 30 ad 4b bd 12 44 b0 3d 5c 6c 87 bd c1 7b ce 3d
       -0.04972571 0.086067334 -0.06612465 0.10082198
0001f0 34 82 85 3d 0a cf 9e 3d 8c 03 c9 3c 81 f9 73 bd
       0.06518975 0.07754333 0.024537824 -0.059564117
000200 ac 9f 83 3c e1 c7 18 3d 98 fb 8d bd f0 ae f8 3c
       0.016067348 0.037299994 -0.06932753 0.030356854
000210 e9 14 53 bc e2 97 bc 3d 71 97 df bc 24 18 bc bd
       -0.012883403 0.09208657 -0.027293893 -0.09184292
000220 70 2d a3 bd f2 c4 bc bd 4b 7f a3 bd d1 30 af bc
       -0.07967651 -0.09217252 -0.079832636 -0.021385582
000230 48 25 b8 3d 3f e6 48 3c 68 b4 d3 bd 97 e8 1c bd
       0.08991486 0.012261926 -0.10337144 -0.038307752
000240 23 62 cd 3c 11 0c 9c bd f2 ed a9 bd 5a da b7 3d
       0.02507121 -0.07619489 -0.082973376 0.08977194
000250 d5 53 63 3d 98 36 01 3d cf 1b 52 3d aa 0d 4c 3d
       0.05549987 0.031546205 0.05129605 0.04981772
000260 cd e7 ad 3d 6c aa 99 3d 64 de af 3c f1 57 d8 bc
       0.08491478 0.075032085 0.021468349 -0.026409121
000270 c3 bd a6 3d d8 d1 61 3d 21 9a 78 3d a2 98 39 3d
       0.08141663 0.055131763 0.060693864 0.045311578
000280 67 52 27 3d 2a 23 bf bd d0 45 bb bb 05 33 bd 3d
       0.04085007 -0.09332879 -0.0057151094 0.09238247
000290 01 31 56 bc c0 19 fc bc fc 06 62 bc 3f f5 15 3c
       -0.013073207 -0.030773997 -0.0137956105 0.0091527095
0002a0 e4 62 94 bd 91 f2 13 bb 22 cc 4d bd 81 eb cd 3c
       -0.072454244 -0.0022575 -0.050243504 0.025136711
0002b0 7f db 7a bd 33 04 61 3c d1 20 28 bd d7 f8 4e bd
       -0.061244484 0.013733911 -0.04104692 -0.05053028
0002c0 04 a5 da 3c ae 88 29 bd ec db b7 3c b9 ed 77 3c
       0.026690014 -0.041390114 0.022443734 0.015132361
0002d0 2a 53 4b 3d e4 36 ab 3d 2c b1 bf bc e5 1c b5 3d
       0.04963986 0.08360079 -0.023399912 0.08843402
0002e0 47 3f 49 bd e9 04 a9 bc 40 55 a9 bd e9 0d bf 3d
       -0.04913261 -0.020632224 -0.08268213 0.09328825
0002f0 09 b2 b8 ba 96 37 8b 3d 27 73 a6 3c 04 c4 66 3d
       -0.0014091145 0.067977116 0.02031858 0.05633928
000300 3a 50 1f 3c c0 44 bc bd 3d 1a 89 3d ae 65 2f bd
       0.009723717 -0.091928005 0.06694458 -0.04282158
000310 13 61 09 3d 83 29 62 3d 78 49 8b bd 07 3a 1f bd
       0.033539843 0.05521537 -0.068011224 -0.0388737
000320 2e a1 a1 bd 9b 38 5f 3c 2b 5a 10 bd 1b 28 ae 3d
       -0.07892071 0.013624336 -0.03524224 0.08503743
000330 03 18 00 3d 04 99 9e bb da c6 57 3d 69 01 d2 3d
       0.0312729 -0.004840018 0.052679874 0.10254175
000340 fe 5e cf 3c 58 c0 88 bc 92 eb 34 bd a5 30 a4 3d
       0.02531385 -0.01669328 -0.04416997 0.08017091
000350 c2 bd 0b 3a 41 80 d3 bb d0 b7 17 3d 0c 25 e9 39
       0.00053307053 -0.006454498 0.03704053 0.00044468825
000360 cc 60 9c bd 73 25 c6 3d f9 c5 be 3c eb bc 9b bd
       -0.0763565 0.096751116 0.02328776 -0.076043926
000370 7f 16 94 3c 25 3b ad bd ca d9 a0 bd 6d 48 9a 3d
       0.018077133 -0.084585465 -0.0785404 0.07533345
000380 2e 17 a3 bc ef fc 52 bd 9a a2 be bd 9d bb 92 bd
       -0.019908514 -0.051510748 -0.093083575 -0.07164691
000390 01 a0 ad 3d bb 95 0c 3d a4 92 81 bd e3 1f cf 3d
       0.08477784 0.03432248 -0.063267976 0.10113504
0003a0 71 3a 00 3c d6 ce 92 bd 27 65 32 bd af ad 81 3b
       0.0078264335 -0.07168357 -0.043553498 0.0039574723
0003b0 52 69 73 bd 98 f5 51 bd cb e4 7b 3c fe b6 09 bd
       -0.059426613 -0.051259607 0.015374373 -0.03362178
0003c0 0c b7 29 b7 85 d7 b0 3d 34 23 ca 3c 00 c0 cc 3c
       -1.0115804e-05 0.08634857 0.02467499 0.024993896
0003d0 17 c0 74 3d a1 dd 90 bd ef 33 a2 3c 19 2e 12 3d
       0.059753504 -0.07073522 0.019800154 0.035688493
0003e0 82 94 c5 bd cf 1e f3 3b 41 19 92 bd 3d 3e 9b 3d
       -0.09647466 0.007419444 -0.07133723 0.075802304
0003f0 97 03 2c bc ab ec b6 3c 42 a2 73 3d 74 2a eb ba
       -0.010498903 0.022329649 0.059480913 -0.0017941729
