model_concat.pt (torch_old, 101119 bytes, 3 tensors)

weight f4 [20, 903]
-0.002242806 -0.00026518627 0.019088252 -0.012788226 0.008007456 -0.0022390378 -0.02597496 -0.040462416
-0.003140118 0.027943237 -0.0037941986 -0.022727143 -0.011615409 -6.54119e-05 -0.010379967 0.006941457
-0.017836047 0.01490798 0.0061415425 -0.01894268 0.0146223055 -0.021321397 0.0012930967 -0.02438701
0.016068162 -0.020552749 0.036153577 0.013960209 0.024246603 -0.013168448 0.009223831 -0.025470812
-0.019351909 -0.027390577 -0.025090393 0.0023636788 -0.02258721 0.026985962 0.03469302 0.026878633
0.03024461 -0.0015885705 -0.040168125 -0.011807449 -0.027578197 -0.002737544 -0.013943596 -0.01373566
-0.0064625605 0.02133934 -0.023382504 0.025195003 -0.013654975 -0.019298472 0.010310523 0.019968817
0.010450083 0.021414572 0.026439141 0.012601301 -0.0015910732 -0.009313703 0.02852003 0.027451975
-0.019653788 -0.007983374 -0.015178455 0.008513343 0.016930962 0.031644087 -0.010167226 -0.038134303
0.0011750378 0.0035840415 -0.04439792 -0.032365646 0.020358797 0.038760908 -0.007567905 0.031991944
-0.013786712 0.028775869 0.0006969597 -0.007507056 -0.0013582822 -0.009389072 0.002244948 0.001817349
-0.008185813 -0.0033436497 0.016999131 -0.00732887 -0.039330225 0.024457898 0.0052972483 -0.0013660863
0.013739184 0.031599786 -0.029677164 0.00015147035 0.0047404226 0.012167677 -0.007830903 -0.0149560105
0.013154784 -0.014772794 0.032443285 0.014473756 0.024132911 -0.028005285 -0.020642934 -0.008275351
0.0065634046 -0.010875518 -0.0052935267 -0.027356436 0.006610999 0.008799543 0.015684776 -0.018649193
-0.012558395 -0.015841585 9.474598e-05 0.012853588 -0.0065241526 -0.015814906 0.01716799 0.007703288
-0.011402816 0.0019071265 0.026342181 0.03091658 -0.006327164 -0.02278023 0.027905686 -0.027586224
0.02535973 -0.012337364 -0.017425995 0.0215468 0.008113281 -0.022606794 0.03578295 0.029620495
0.029029964 0.028487567 0.010050339 0.02392818 -0.004902747 0.01780228 0.01424222 0.0065520424
0.019416131 0.00014737924 0.020814406 -0.029025666 -0.03240342 0.026940238 -0.018586982 -0.017262096
-0.008967214 0.0104362 0.009821292 0.02436006 -0.004220912 0.026558315 0.021131229 0.0015634277
-0.0143964235 0.022036595 -0.025929797 -0.007607024 0.008886973 -0.0035046416 0.023636486 -0.027615529
0.014923052 -0.009564116 -0.033075586 -0.015166727 -0.029716138 0.000267389 0.02069856 0.028654465
0.008567057 -0.012690904 0.007534117 -0.007758085 -0.031099955 -0.001574836 0.014002015 0.027408076
-0.015189387 -0.038743794 0.015958847 0.020914659 0.02848621 -0.014929824 -0.026151517 -0.0077410694
0.013046272 -0.0075241006 0.012659698 0.00076806534 0.0153430225 0.012578578 -0.012732102 0.029332314
-0.020787837 -0.02191221 0.007165357 -0.022629587 0.023502443 -0.0009583605 0.0092687635 0.020086838
0.019043082 -0.01550334 -0.015605829 0.0098555 -0.009759961 0.028530529 -0.007055898 0.03273008
0.012206356 -0.0151371155 -0.015292359 0.0054187533 -0.0021660794 -0.013898055 0.022894397 0.006350326
0.0044356803 -0.027722003 -0.019897982 0.026706034 -0.00490506 -0.023076171 -0.03487443 0.022462096
-0.00061759347 0.017295228 0.008580345 0.022024663 -0.026656376 0.005734699 0.0005280967 0.014094923
0.0044298014 -0.020528616 0.017028319 -0.036203787 0.0075812563 -0.018006401 0.00529518 -0.000651887
00000000: 0afc 12bb b308 8bb9 f75e 9c3c b585 51bc
00000010: b431 033c d2bc 12bb 70c9 d4bc ebbb 25bd
00000020: 70ca 4dbb 37e9 e43c 17a8 78bb 462e babc
00000030: 8e4e 3ebc bf2d 89b8 bd10 2abc 2975 e33b
00000040: e71c 92bc 9a40 743c fe3e c93b ae2d 9bbc
00000050: 6592 6f3c 36aa aebc 207d a93a 44c7 c7bc
00000060: 61a1 833c 3d5e a8bc c615 143d 5cb9 643c
00000070: d0a0 c63c 79c0 57bc 8d1f 173c 2aa8 d0bc
00000080: e587 9ebc 3462 e0bc 5e8a cdbc f3e7 1a3b
00000090: d008 b9bc aa11 dd3c 451a 0e3d 9430 dc3c
000000a0: 8bc3 f73c 9537 d0ba 5587 24bd 0874 41bc
000000b0: aceb e1bc 5e68 33bb ae73 64bc 890b 61bc
000000c0: e3c3 d3bb d7cf ae3c aa8c bfbc c065 ce3c
000000d0: 1eb9 5fbc d417 9ebc 78ed 283c a595 a33c
000000e0: d336 2b3c 9d6d af3c e696 d83c b075 4e3c
000000f0: 8f8b d0ba 8098 18bc d7a2 e93c f7e2 e03c
00000100: fb00 a1bc b3cc 02bc 0eaf 78bc 8c7b 0b3c
00000110: cdb2 8a3c 3b9d 013d 7094 26bc b732 1cbd
00000120: ba03 9a3a 3de2 6a3b 98da 35bd d791 04bd
00000130: 7ec7 a63c c2c3 1e3d 30fc f7bb fc09 033d
00000140: a9e1 61bc 5fbb eb3c 2cb4 363a c0fd f5bb
00000150: 6308 b2ba 9fd4 19bc fa1f 133b 1d34 ee3a
00000160: ca1d 06bc 2221 5bbb c341 8b3c 0427 f0bb
00000170: bb18 21bd ee5b c83c 8a94 ad3b 400e b3ba
00000180: 501a 613c c76e 013d 861d f3bc 03d4 1e39
00000190: 8c55 9b3b f05a 473c 304d 00bc 0e0a 75bc
000001a0: 2a87 573c 9709 72bc 40e3 043d 5523 6d3c
000001b0: 62b2 c53c 576b e5bc 5f1b a9bc 5695 07bc
000001c0: d411 d73b 3b2f 32bc 5275 adbb 9b1a e0bc
000001d0: 14a1 d83b f52b 103c 5c7d 803c 31c6 98bc
000001e0: bac1 4dbc 36c6 81bc 5cb2 c638 db97 523c
000001f0: 8fc8 d5bb 438e 81bc e2a3 8c3c dd6b fc3b
00000200: e0d2 3abc 8cf8 f93a 8fcb d73c c544 fd3c
00000210: 1954 cfbb 9b9d babc 779a e43c 81fc e1bc
00000220: 35bf cf3c a822 4abc f6c0 8ebc ea82 b03c
00000230: 91ed 043c e231 b9bc 2591 123d aea6 f23c
00000240: 3fd0 ed3c c25e e93c 2daa 243c 0805 c43c
00000250: 39a7 a0bb 16d6 913c 3358 693c 84b2 d63b
00000260: 940e 9f3c d089 1a39 f982 aa3c 3cc7 edbc
00000270: 73b9 04bd c6b1 dc3c ba43 98bc 3d69 8dbc
00000280: 39eb 12bc 98fc 2a3c 7ce9 203c c08e c73c
00000290: 934f 8abb d390 d93c 661b ad3c eeeb cc3a
000002a0: fade 6bbc 1786 b43c ba6a d4bc 5844 f9bb
000002b0: ab9a 113c 21ae 65bb 4ea1 c13c f639 e2bc
000002c0: d17f 743c cfb2 1cbc 447a 07bd dd7d 78bc
000002d0: 426f f3bc 5830 8c39 0790 a93c c5bc ea3c
000002e0: d75c 0c3c 82ed 4fbc c1e0 f63b 8937 febb
000002f0: 55c5 febc ba6a ceba b568 653c e786 e03c
00000300: e8dc 78bc d0b1 1ebd 21bc 823c 3855 ab3c
00000310: ea5b e93c 389c 74bc b53b d6bc cca8 fdbb
00000320: 08c0 553c bb8c f6bb 9f6a 4f3c fe57 493a
00000330: 4d61 7b3c 6116 4e3c 4e9a 50bc 524a f03c
00000340: 414b aabc 3c81 b3bc 5fcb ea3b af61 b9bc
00000350: 3288 c03c 7c3a 7bba 03dc 173c 278d a43c
00000360: 3d00 9c3c b901 7ebc 97af 7fbc f778 213c
00000370: 3ee8 1fbc dbb8 e93c 2a35 e7bb fa0f 063d
00000380: 2bfd 473c aa01 78bc cd8c 7abc cc8f b13b
00000390: c8f4 0dbb abb4 63bc 088d bb3c 6516 d03b
000003a0: 2f59 913b 4119 e3bc 1801 a3bc 9dc6 da3c
000003b0: a0ba a0bb 3d0a bdbc 7ed8 0ebd 6e02 b83c
000003c0: ffe5 21ba b9ae 8d3c 9394 0c3c 116d b43c
000003d0: 795e dabc 24ea bb3b f86f 0a3a 64ee 663c
000003e0: de27 913b a12b a8bc f97e 8b3c 6c4a 14bd
000003f0: 306c f83b 2982 93bc 3083 ad3b 65e3 2aba

bias f4 [20]
0.008518794 0.027651 -0.0017114833 -0.00020110744 -0.0012371464 -0.0053667547 0.010430525 -0.000110663335
0.017016008 0.010188629 -0.022082128 -0.023681963 -0.015947128 0.013029672 -0.016637579 0.009181193
0.029540433 0.030020572 -0.00021617547 0.042143922
00000000: 6992 0b3c 5a84 e23c da53 e0ba 5ee0 52b9
00000010: bf27 a2ba 9adb afbb cbe4 2a3c ed13 e8b8
00000020: 2865 8b3c 35ee 263c 94e5 b4bc ad00 c2bc
00000030: 8da3 82bc 687a 553c 884b 88bc b76c 163c
00000040: c7fe f13c b4ed f53c 29ad 62b9 1b9f 2c3d

weight f4 [4, 1240]
-0.02239753 -0.006973793 -0.019929906 -0.015647775 0.02226643 -0.0071624867 -0.014012168 -0.016346633
0.020442998 0.001835735 -0.025543394 0.012108122 0.0030675698 0.010630196 -0.009607539 0.010698783
-0.01949248 -0.0044379467 -0.004346516 -0.021756979 0.01212817 0.012072104 -0.020450722 -0.011458408
0.00018360498 0.008196864 -0.006712544 -0.000554464 0.019195661 0.017568145 0.0008254956 0.012914744
0.024160422 0.02242702 0.0019515989 0.005867502 0.014527854 -0.018599894 -0.006061905 -0.016648924
-0.01731675 -0.025540296 0.00886025 0.01926754 -0.020974614 0.00056099583 0.008909319 -0.02205419
-0.013087471 -0.0019961363 -0.005139354 -0.016496582 -0.0085757105 -0.026277365 0.012044097 0.0064046807
0.015269189 0.023198368 0.012042058 -0.023139026 -0.0049870615 -0.028722 -0.031188814 0.011467547
-0.015782023 0.02375313 0.015177203 -0.0082741715 0.0037902824 0.017355425 0.012918717 -0.0140826255
0.02492491 0.007295939 0.0043615922 -0.0028488056 0.0135125285 0.010933086 0.012717934 -0.0048098816
-0.0011150378 -0.003371369 -0.014014975 -0.022017378 -0.0056828083 -0.01645279 0.024478422 0.005317374
-0.030888533 0.0030242873 0.017636808 0.02458405 -0.024468204 0.011343298 0.017249804 -0.0086281765
-0.0266574 0.0029107041 -0.022718655 0.010627679 0.008402874 -0.015468404 -0.019595996 0.00491033
-0.010385177 0.013432936 0.02473325 0.021394473 0.009667513 -0.023642773 0.018293427 0.0060793525
0.00583409 -0.026728166 -0.014415716 -0.025212735 -0.0055469368 0.017375033 0.0019114029 -0.02484007
0.0019879788 -0.02057194 0.0026317292 -0.017057637 -0.021496993 -0.007791118 0.0014156103 0.0012391832
-0.01675297 -0.02347402 0.016299935 0.008620854 0.002843468 -0.02511921 0.0038829262 -0.025693156
-0.0064294967 -0.0043153986 0.0044608708 -0.027692009 -0.01084717 0.008945753 -0.0265459 -0.0073560453
-0.02275181 0.01443473 -0.022891816 0.024866937 -0.028091263 -0.010429297 -0.014065141 0.019206906
-0.030671654 -0.009156481 -0.030231418 0.00687502 0.023763368 -0.02617305 -0.027052889 -0.0023938
-0.010108801 0.011494469 0.016191516 -0.0019157551 -0.013823747 -0.021424558 -0.0074937353 -0.007369171
-0.008036233 -0.02962363 -0.02145456 0.024147578 0.021461057 -0.0008622896 -0.022814713 -0.0063545294
0.024316365 -0.0027883907 0.0018933106 0.020042902 0.019563848 -0.02386814 -0.02581377 0.021402754
0.0064131557 -0.008264003 -0.022167232 -0.017338147 -0.014235406 0.019026555 -0.018930834 -0.020624472
0.01926715 -0.013032753 -0.016475389 -0.02577335 -0.02800618 -0.0029039346 0.01980765 0.021899998
0.004457978 -0.0019257545 -0.011967757 -0.014337906 -0.011582826 -0.018648015 -0.0015131949 -0.009940971
0.022890922 0.0056514884 0.0075665596 0.018034784 0.018004438 -0.008522985 0.023308322 0.012066972
-0.029166522 0.015995594 0.01729581 0.008768728 0.013400292 -0.014666552 -0.027907865 -0.014633968
-0.02027787 -0.005760962 -0.015919836 0.017668812 0.020127583 0.0056370916 -0.012709712 -0.02719295
0.004715734 -0.013810966 -0.007838887 -0.026394809 -0.010142841 0.0017583279 -0.009633958 -0.011214067
-0.026059166 -0.022114327 0.018379273 -0.016870039 -0.0261387 -0.023221456 -0.025952136 -0.017840782
-0.02444963 0.02449816 -0.016765831 -0.0230928 -0.018561607 -0.015823461 -0.023694918 -0.014934482
00000000: 067b b7bc 6a84 e4bb 0b44 a3bc c32f 80bc
00000010: 1768 b63c 4bb3 eabb 4b93 65bc 60e9 85bc
00000020: 1378 a73c 0c9d f03a 6140 d1bc 2561 463c
00000030: 4809 493b 462a 2e3c f068 1dbc f349 2f3c
00000040: b2ae 9fbc 326c 91bb 386d 8ebb b13b b2bc
00000050: 3bb5 463c 13ca 453c 4688 a7bc 0cbc 3bbc
00000060: 1686 4039 244c 063c e6f4 dbbb 7359 11ba
00000070: 3840 9d3c 12eb 8f3c 1266 583a 5d98 533c
00000080: 14ec c53c dfb8 b73c cbcc ff3a 2d44 c03b
00000090: 3c06 6e3c ce5e 98bc f2a2 c6bb 5363 88bc
000000a0: dbdb 8dbc e239 d1bc 952a 113c f6d6 9d3c
000000b0: f4d2 abbc cb0f 133a 64f8 113c fdaa b4bc
000000c0: d56c 56bc 9cd1 02bb 0768 a8bb d723 87bc
000000d0: 2381 0cbc a143 d7bc 9b54 453c 5bde d13b
000000e0: 9f2b 7a3c 810a be3c 0d4c 453c 0e8e bdbc
000000f0: 816a a3bb 664a ebbc af7f ffbc 61e2 3b3c
00000100: 4d49 81bc ed95 c23c cea9 783c 6490 07bc
00000110: 6366 783b f72c 8e3c 07a9 533c d0ba 66bc
00000120: 532f cc3c c612 ef3b b0eb 8e3b 07b3 3abb
00000130: a763 5d3c b020 333c e25e 503c 369c 9dbb
00000140: 7626 92ba 30f2 5cbb 119f 65bc ca5d b4bc
00000150: da36 babb 00c8 86bc f986 c83c 5e3d ae3b
00000160: f309 fdbc 1f33 463b 117b 903c 7d64 c93c
00000170: 8b71 c8bc 3dd9 393c 764f 8d3c 325d 0dbc
00000180: 9f60 dabc 83c1 3e3b 791c babc b71f 2e3c
00000190: 35ac 093c 306f 7dbc c887 a0bc d5e6 a03b
000001a0: 9726 2abc d115 5c3c 629d ca3c 7643 af3c
000001b0: 7d64 1e3c 7dae c1bc 19dc 953c 4e35 c73b
000001c0: e52b bf3b 07f5 dabc e52f 6cbc f08a cebc
000001d0: 14c3 b5bb 1656 8e3c 0a88 fa3a 677d cbbc
000001e0: c048 023b 7c86 a8bc 1779 2c3b 75bc 8bbc
000001f0: 761a b0bc a34c ffbb 008c b93a 176c a23a
00000200: 863d 89bc 974c c0bc 7187 853c 7b3e 0d3c
00000210: 7a59 3a3b cdc6 cdbc b178 7e3b 747a d2bc
00000220: 87ae d2bb 3068 8dbb 7f2c 923b 5ada e2bc
00000230: 54b8 31bc 3591 123c ca76 d9bc fb0a f1bb
00000240: 0162 babc a57f 6c3c 9e87 bbbc bfb5 cb3c
00000250: a61f e6bc a4df 2abc 7a71 66bc cd57 9d3c
00000260: 1f43 fbbc 1105 16bc e1a7 f7bc d947 e13b
00000270: 65ab c23c dd68 d6bc 059e ddbc 4de1 1cbb
00000280: 629f 25bc 4c53 3c3c 12a4 843c 131a fbba
00000290: ff7c 62bc 8e82 afbc 028e f5bb 1679 f1bb
000002a0: 67aa 03bc 41ad f2bc 79c1 afbc 24d1 c53c
000002b0: 19cf af3c 470b 62ba ece5 babc a839 d0bb
000002c0: 1d33 c73c 6fbd 36bb f628 f83a 0331 a43c
000002d0: 5d44 a03c 1e87 c3bc 6677 d3bc d454 af3c
000002e0: 7325 d23b be65 07bc 0e98 b5bc bb08 8ebc
000002f0: 9f3b 69bc 94dd 9b3c d614 9bbc a7f4 a8bc
00000300: 24d6 9d3c 5487 55bc 65f7 86bc a222 d3bc
00000310: 376d e5bc f04f 3ebb a743 a23c a067 b33c
00000320: 3b14 923b 9969 fcba 6914 44bc 89e9 6abc
00000330: e5c5 3dbc b9c3 98bc 6556 c6ba 74df 22bc
00000340: be85 bb3c 1f30 b93b e7f0 f73b afbd 933c
00000350: 0b7e 933c fda3 0bbc 18f1 be3c 8db4 453c
00000360: a1ee eebc 3109 833c f1af 8d3c b6aa 0f3c
00000370: e68c 5b3c fa4b 70bc 099f e4bc 4fc3 6fbc
00000380: c71d a6bc 74c6 bcbb 516a 82bc 2fbe 903c
00000390: 9ae2 a43c 5ab7 b83b 653c 50bc c0c3 debc
000003a0: 7286 9a3b 6447 62bc ad6e 00bc ed39 d8bc
000003b0: 292e 26bc b277 e63a c0d7 1dbc 35bb 37bc
000003c0: 087a d5bc 1b29 b5bc 2190 963c 0933 8abc
000003d0: d420 d6bc ec3a bebc 9399 d4bc d526 92bc
000003e0: 974a c8bc 5eb0 c83c 7f58 89bc 1d2d bdbc
000003f0: 830e 98bc 34a0 81bc d81b c2bc c2af 74bc
