model.pt (torch_old, 392870 bytes, 3 tensors)

weight f4 [100, 903]
00000000: 81cf 0fbc 085a 973c daaf f1bc e6d3 ddbc
00000010: 05e9 533b ed5b b1bc 3eeb 7b3c 3f16 c63c
00000020: fca8 993c 4884 273c 2770 023c f87f 36bb
00000030: b905 04bd c471 aa3c 7212 72bc 374e e23c
00000040: 53d7 c63c fe7e 5a3c 12e2 adbc 5d44 8bbc
00000050: d314 28bc bf10 f4bc 84fc 08bc 1ca3 e8bc
00000060: 009c babc b863 913c 2cd4 c43c eaea 8b3a
00000070: 5a83 01bc 3f0b 9b3c f1b6 c03c 6516 bfbb
00000080: 0331 8e3c d38e ceba 56d5 823c 6cb6 05ba
00000090: 5d2b f2bb 4e2c 40bc 3942 8e3c 812f 1b3c
000000a0: aada ccbc a25b a0bc abd0 c1bc e0e7 7f3c
000000b0: ab4a 01bd 0e73 58bb b426 da3c 5134 56bc
000000c0: d84d e0bb 2d21 7b3c a114 b1bb b607 063d
000000d0: 18ef f7bc 621e b53c 18ab 20bb fc19 08bc
000000e0: b6b2 2cbc 0679 e33c 1d1b 613b 2371 3d3c
000000f0: 8801 1abc d8c3 b33c b9bd e03c aa0d 7c3c
00000100: c8c5 ef3c 1c0b 3ebc 78f7 1ebc b228 66bc
00000110: a07e dabb edd6 5e3c 8188 323c 6836 893c
00000120: 3c41 043c 3995 febc d44e f6b9 b445 c73a
00000130: 4606 123c 4b55 cf3b e511 0f3c 2452 19bb
00000140: e2c7 40bc b17d 4c3c 42f3 a83b 328b 253b
00000150: 29de 93bb db9f 81bc 2c30 e53c ea2f e43c
00000160: c819 b2bb 6bba 78bc 15ce dbbb e474 40bc
00000170: d3e4 10bc 6928 d13c 8286 8fbc dadd 48bc
00000180: 7e14 f63c f213 943c 4146 d73c 585e 413c
00000190: 1ce6 de3c 0bf0 88bc 2aee 063d 303f f93c
000001a0: 56da 323c a9d4 1dbb a71d 94bc 7f52 8dbc
000001b0: f40b f13c d7da 223c 3e46 ce3b 03d2 973c
000001c0: ad32 c5bc 052c f53b 0620 99bc 3186 babc
000001d0: bbaa e4bb 3d5f d7bc 70f7 ddbb b943 c2bc
000001e0: cab0 cc3b 082a a13c 36d1 bd3c e670 c9bc
000001f0: 6e40 0e3d bcb1 413c 2c24 a03a 759d f23b
00000200: 20df 7539 0d69 95bb a5c9 c3bb a9ff df3c
00000210: 8b6b b4bc f90d 42bc ffb6 bcbc 7f25 03bd
00000220: 9e51 e6bc c64c 5fbc 31a3 1d3b dd23 493c
00000230: 1787 c5bc 57d9 563c 28bb c03c b577 0c3d
00000240: cad7 683c 9038 a73c 1c64 d2ba d1fb 92bb
00000250: bcf7 643b e0f1 683b 68ef 14bc 85e5 a5bc
00000260: feb1 cd3c 65c6 b03c c853 04bd ac43 b8bc
00000270: 511c 7bbc 9eff 8abc f2bc a93c 4df9 b2bc
00000280: 8afd cfbb c90d 02bc b913 a7bc f0ae a0bc
00000290: 34e4 a3bc 8190 683c 0e22 88bb 27d4 073d
000002a0: f025 7abc 1486 fe3c b16f b2bb da57 0a3b
000002b0: c0b4 96bc 4c32 dbbb 4e54 cdbb 93a7 48bc
000002c0: a4de 75bc c8b6 07bc 98f0 71bb 2a24 bfbc
000002d0: 82be 2cbc 5635 853c bbac 9c3c 8b17 ab3c
000002e0: f39d 66bb e09c f9bb 13ad 1cbc fced cdbc
000002f0: 5450 753b 1c3a d53c 8415 e4bc 0195 cb3c
00000300: bc42 4dbc 27e5 be3a 5e36 9538 149a f33b
00000310: fdfd 01bd 3444 31bc 8660 78bc bb8e a7bc
00000320: 124f 1a3c 7251 cebc 3dbd e9bc 4df3 eabc
00000330: 3f23 72bc bf4a d2bc da39 533c 3f0a 053c
00000340: cf6e 5dbc db28 963c 8c20 aa3c e1fc 843c
00000350: 4ee1 8fbc 1852 bc3c 16d1 023d adb3 cdba
00000360: 0926 a7bc 4e01 71bc d640 85bc 0275 55bc
00000370: eeb5 453c 3035 463b 66ca 51bc 11e5 84bc
00000380: 5453 033d 8efb 333c 7753 c13c acb6 a9bc
00000390: ff1d c83b 819d ebbc 393d bebc 9a91 8e3c
000003a0: a146 603c f37b cebc 4d7f 293b 1a88 743c
000003b0: 6b34 dabc c950 c1bb 1303 eb3b 2957 67bc
000003c0: 0b94 c93c 8152 acbb fcb3 ccbc 885e 54bc
000003d0: 6003 a2bc 2d85 033b ab86 e03c e710 98ba
000003e0: 05ff 0c3d afac ae3c 3d2e 8b3c b690 023d
000003f0: 6da0 c83c b57d 54bc 204e 8ebc b2be ea3c
-0.0087775 0.018475547 -0.029502798 -0.02707858 0.0032334935 -0.021650279 0.01537591 0.02418053
0.018757336 0.010224409 0.0079613095 -0.0027847271 -0.03223202 0.0208062 -0.0147749055 0.027625186
0.024272596 0.013335941 -0.021225963 -0.017000372 -0.010258871 -0.029793141 -0.008360986 -0.02839809
-0.022779465 0.017747745 0.024026953 0.0010674868 -0.007904852 0.018926261 0.023524733 -0.005831527
0.017357355 -0.0015759118 0.015970867 -0.00051007303 -0.007390423 -0.011729313 0.017365562 0.009471775
-0.02500661 -0.019574944 -0.023659071 0.015619248 -0.03156535 -0.0033027562 0.026629783 -0.013073997
-0.006845217 0.015327734 -0.0054040705 0.032722197 -0.030265376 0.022109214 -0.0024516042 -0.008306976
-0.010540655 0.02776767 0.0034348436 0.011562618 -0.009399779 0.021943972 0.027434217 0.015384117
0.029269114 -0.011599328 -0.009702556 -0.014047788 -0.006667927 0.013601047 0.010896803 0.016749576
0.008072194 -0.031077014 -0.00046979508 0.0015203268 0.0089126285 0.0063273064 0.008732294 -0.0023394907
-0.011766406 0.012481139 0.0051559517 0.0025259969 -0.0045125675 -0.015823295 0.027977072 0.027854878
-0.0054352023 -0.015181164 -0.0067079165 -0.011746619 -0.008843618 0.025531964 -0.017520193 -0.012259925
0.030039068 0.018075917 0.026278617 0.011802278 0.027209334 -0.016716024 0.032941975 0.030425638
0.010916313 -0.0024083054 -0.018080546 -0.017251251 0.029424645 0.009939871 0.0062949946 0.018532759
-0.024072016 0.007482054 -0.018692028 -0.022769066 -0.0069783605 -0.02629053 -0.0067738816 -0.023713933
0.006246661 0.019673362 0.023171049 -0.024589967 0.034729414 0.01182216 0.0012217811 0.0074040242
0.00023448141 -0.004559642 -0.0059749656 0.027343588 -0.022023937 -0.011844152 -0.023036478 -0.03201818
-0.02811509 -0.013629144 0.0024053568 0.012276617 -0.024112267 0.013113341 0.023526743 0.03429385
0.014211604 0.020412713 -0.0016051563 -0.0044855853 0.00349377 0.003554456 -0.009090282 -0.020251045
0.025109287 0.021578977 -0.032306463 -0.022493206 -0.015326575 -0.01696759 0.020719979 -0.021847392
-0.006347363 -0.007937857 -0.020395147 -0.019614667 -0.020006277 0.014194609 -0.0041544503 0.03316131
-0.015267834 0.031069793 -0.0054454436 0.0021109493 -0.018396735 -0.0066893455 -0.0062661534 -0.012246984
-0.015006695 -0.008283325 -0.0036917087 -0.023332674 -0.0105434675 0.016260784 0.019125333 0.02088525
-0.003518936 -0.007617578 -0.0095627485 -0.025137894 0.0037431912 0.026028685 -0.02784229 0.024851324
-0.012528118 0.0014564142 7.115e-05 0.007434139 -0.031736363 -0.010819484 -0.015159732 -0.020453801
0.009418266 -0.02518532 -0.028532619 -0.028680468 -0.014778911 -0.025670407 0.012892211 0.008120119
-0.013515188 0.018330028 0.020767473 0.016233863 -0.017563488 0.022988364 0.03193768 -0.0015693806
-0.020403879 -0.014709784 -0.016266268 -0.013028385 0.012067301 0.0030244105 -0.012804603 -0.016222509
0.03206189 0.010985268 0.02359937 -0.020716988 0.0061070914 -0.028761627 -0.023222553 0.017403413
0.013688714 -0.025205588 0.002586323 0.014925027 -0.026636323 -0.005899523 0.0071719973 -0.014119902
0.024606725 -0.0052588587 -0.024988167 -0.012961991 -0.019777 0.0020068393 0.027407965 -0.0011601717
0.034422893 0.021322576 0.016989822 0.03187629 0.02449056 -0.012969424 -0.017371237 0.028655384

bias f4 [100]
00000000: 09f4 16bc c362 0dbd 0e5f d9bc d8ff e3ba
00000010: 150c cdbc 2296 d63c da05 a6bb 4a52 2fbc
00000020: d8fc 71bb 35bc 85bb d084 e53c 0209 10bc
00000030: 2018 08bb 98ed 01bd 6bd8 1b39 cfc0 88bb
00000040: f424 a63c d8b1 edb9 a0fc 853c aa02 dfbc
00000050: b215 cb3b 1045 ce3c 0cef b03c 8af2 943b
00000060: a241 eabc eab3 ad3b 4ed7 c0bc 8d4c db3c
00000070: facb ea3b 111b 883b 20bb eeba fc15 c13c
00000080: baea dfbc a931 b7bc ccb4 a3bc 9510 35b9
00000090: 5132 de3c a6f5 f5bc 9efe 4e3c 744d 66bb
000000a0: db8b ad3c c5c3 b53c 4674 513c 7ec9 90bc
000000b0: eb6d e2b9 2a2d bdbc f3e7 80bc 652c 11bc
000000c0: 6389 ffbc 360f e23c a053 6dbc 601a e93b
000000d0: bb6f 5e3c 7011 eeb9 c7af 4e3c 094c 3abc
000000e0: 85f5 8ebc 4e64 cfbc 8acd aebc bd83 893c
000000f0: 52b3 84bc e473 cbbc cc68 8a3c 27c0 bc3c
00000100: 21b0 a33c dd72 50bc 3a1c fcbb 6a15 e33c
00000110: 7aa3 c8bc 6923 993c 6bc9 b4bc af84 94ba
00000120: bc2d 7a3c 2576 f13b 3059 103d 2282 b0bc
00000130: af72 253b de3e 0f3c 9091 b4bc 3530 0d3d
00000140: aa29 adbc 1473 f7bc fc07 77bc 8e5f 4a3c
00000150: 06ae fe3c c2fd 003d 4dda 06bd f10d 4f3c
00000160: 2732 0cbd 9d0a a4bc 0266 7c3b 41ce 3fbb
00000170: cb43 ab3a c4d0 fbbb 3d66 ebbc 7d62 16bc
00000180: 83f7 93bc b31a d5bc 359d 993b 7037 c2bc
-0.009213456 -0.034518015 -0.026534583 -0.0017394973 -0.025030175 0.026194636 -0.0050666155 -0.010700772
-0.0036924388 -0.004081274 0.028017431 -0.00879121 -0.0020766333 -0.031720728 0.00014862574 -0.004173375
0.020281292 -0.00045336667 0.016355813 -0.02722295 0.0061976546 0.025179416 0.021598361 0.0045455145
-0.02859575 0.0053009884 -0.023540165 0.0267699 0.007165429 0.004153617 -0.0018213727 0.023570053
-0.027333606 -0.022362547 -0.019983672 -0.00017267682 0.027123602 -0.03002436 0.012633948 -0.003514138
0.021184852 0.022188077 0.012784069 -0.017674204 -0.00043187974 -0.023092825 -0.015735602 -0.008860682
-0.03119344 0.027595144 -0.01448527 0.00711374 0.013576443 -0.0004540789 0.012615151 -0.011370667
-0.017451057 -0.025316384 -0.021338243 0.01678645 -0.016198788 -0.024835534 0.016895674 0.023040844
0.019981446 -0.012722698 -0.0076937946 0.027720172 -0.024492014 0.018693643 -0.0220687 -0.0011331047
0.015269693 0.0073688203 0.035241306 -0.021546427 0.0025245359 0.008743016 -0.022042066 0.034469802
-0.021138031 -0.03020624 -0.015077587 0.012351884 0.03108884 0.031492002 -0.03292303 0.012637601
-0.034227517 -0.020024592 0.003851295 -0.0029267224 0.0013066469 -0.007684799 -0.028735274 -0.009178755
-0.018062359 -0.026013708 0.00468793 -0.023708075

weight f4 [4, 1400]
00000000: c7af 34bc 0974 923c 62d4 1bbc 063c 6e3c
00000010: 2783 ab3c 6699 b5bc 15d3 c33c ab0a 7b3c
00000020: 20bb 64bb d8ce 92ba 1fb5 8dbc 103a babb
00000030: 80bd 47bc d4e9 963c 8dca 95bc be40 a93c
00000040: f288 8d3c 6b7b 243b 583d a8bc ebaf 4c3c
00000050: 7add 81ba 1ce2 9c3b db81 28bc c596 a43c
00000060: c593 7a3c 4f80 783c b2bb e4bb 00ac af3c
00000070: a7ae c8bc 5afa 27bc f75f 82bc 6bd6 2f3c
00000080: 7a62 3ebc b5dc 18bc 42a3 633c 88c0 903c
00000090: 5f40 acbc 3d16 b2bb 5ef0 3bbc 9f2f 85bc
000000a0: 90e0 80bc 2841 ccbc b228 87bc ef51 bd3c
000000b0: 9eb6 453c d8f4 f2bb a135 2dbc 87db 09ba
000000c0: 9960 9fbc fd01 913c 1962 ad3c 623a c9bc
000000d0: f626 9bbc 8c7d 81bc a4df a1ba 40f9 933c
000000e0: b385 37bc 6d9f 9c3c b6ed d7bc 64ad 27bc
000000f0: 8143 82bc ad89 393c 2529 423c 9e5e d23b
00000100: 6529 183a 5cb4 d2bc d205 3a3c 3244 a8bb
00000110: 86dd 3fbc bc07 093c b86a be3c 8245 a73c
00000120: bb21 bd3c 5e07 e43b 773a ad3c ef36 5c3c
00000130: f677 5e3a f417 fdb8 f556 aabc 5863 e33b
00000140: ec0c f33b b634 6f3c 05d3 b0bc d0c1 75bc
00000150: 521a c4bb dff4 aabb a648 373c ff5c 7f3c
00000160: 5f05 1739 6c96 d4bc d06c ea3b 1962 5cbb
00000170: e978 aa3c 638c f43b 20fd 80bc 1b88 513c
00000180: 9296 323b f08d ba3c 1ffa d0b9 822d db3a
00000190: a746 75bc 4262 e0bc 2e6f 863c 56dc e0bc
000001a0: 36cd 8f3c f95a f6ba b693 1bbb 5cdd 10bc
000001b0: 3891 7d3b ca88 9439 e69d 09bc ed28 2bbc
000001c0: 257d c03c c100 253c 708c bcbc aaed 61bc
000001d0: fa65 fe3b 0fc7 c13c 88e0 4a3c 9f41 253a
000001e0: 7206 95bc ce85 8b3c 7e9d 303c 6c71 4d3c
000001f0: 0d52 5a3c 0d8c 923c b3fb 8dbc 1539 22bc
00000200: d03f 783c 1063 99bc d195 55bc 45bb 94bc
00000210: c97b ac3c 7fad c23c 3d84 d53c 1d73 2bbb
00000220: 818c bbbb feae 2dbc b1c3 1ebc 4eed 8b3c
00000230: f477 5ebc e713 bcbc fe35 a0bb 4004 04bc
00000240: da7e 02bc e9ae c03c 1f08 92bc cb49 d43c
00000250: 93b6 b9bc 3836 c1bb 0a31 673c 52ef 473c
00000260: 94e5 43bc 6836 12bc 2312 a83c 44ac bbbc
00000270: 2698 20bc 1057 e039 063e 70bc a139 e8bc
00000280: fa8a c53c 9468 b33c cf3b ea3b 4977 cd3a
00000290: dbaa 9a3c 2ed5 d4bc afc6 89bc 9a23 debc
000002a0: a8ae b4bb 3124 843a f871 ba3b d485 03bc
000002b0: 8f54 89bc 5c8e a4bc c167 7b3c e3b4 473b
000002c0: 255c d1bc 493d cebc 9bc7 783c b6c4 8abb
000002d0: 926b b53c 6ad8 90bc ca2e acbb 75d2 89bc
000002e0: 95f8 ca3c bd54 c23c 0661 5d3c a056 cb3c
000002f0: b365 01bc 1dca bfbc c761 ddbb a0a1 7638
00000300: 4e73 af3c 5aa4 113c 37b5 e6bc a608 8ebc
00000310: 769a abbb 87b3 6d3b 79c2 9d3c 9692 98bc
00000320: 2890 42bb 9637 13bc 6c4b f7bb c5d8 10bc
00000330: ae6e 413c 37b9 8a3c e109 1dbc 2601 f33b
00000340: c952 aeba fb9c 883c b0ad a0bc 939b 9fb9
00000350: 053a c1bb 3d49 97b8 2aab 303c 2db5 c63c
00000360: aa60 e4bb e72b 18bc 0da5 36bc a1b7 e5bb
00000370: 4f7e bd3a 6ab9 9fbb 8d80 883c ad4c 773c
00000380: 1d37 123c cdfa e43b d6a6 8d3c 5ca5 e5bc
00000390: 7600 9bbc 8d2e 8fbc de27 e5bc 0c61 32bc
000003a0: 7922 67b9 64d8 353b 7319 c4bc ba4d 58bc
000003b0: 5660 733c 229a 133b 9551 ac3c 2236 3dbc
000003c0: 3049 b4bc 0daa f53b 350c c7bc c13c 15bb
000003d0: c5d0 b53c 64e7 1dbc 1032 963c 76d3 90bc
000003e0: f36a aebc 8869 cb3c cd82 8dbc 87de 38bc
000003f0: 04c8 7b3c f456 1c3c 00f7 7bbb 0a9e 70bc
-0.011028237 0.017877595 -0.009511085 0.014540678 0.020936562 -0.022167873 0.023904363 0.015322368
-0.0034901574 -0.001120056 -0.01729828 -0.005683191 -0.012191176 0.018422045 -0.01828506 0.020660754
0.017277215 0.0025097977 -0.020537063 0.012493114 -0.0009907924 0.0047876965 -0.010284866 0.020091424
0.01529402 0.01516731 -0.006980383 0.02144432 -0.024497343 -0.01025256 -0.0159149 0.010732274
-0.011620158 -0.009329964 0.013893904 0.017669931 -0.021026788 -0.00543478 -0.011470882 -0.01625806
-0.01573208 -0.024933413 -0.016498897 0.023110358 0.012067465 -0.0074144416 -0.010571868 -0.00052588474
-0.019455241 0.017701143 0.02116494 -0.024563972 -0.018939476 -0.015806936 -0.0012349975 0.018063188
-0.01120131 0.019118989 -0.026358467 -0.010234211 -0.015901329 0.011324328 0.01185063 0.0064199707
0.0005804508 -0.025720768 0.011353927 -0.0051350826 -0.01171053 0.00836366 0.023244247 0.020418886
0.023087373 0.006958886 0.021146042 0.013440832 0.00084865035 -0.00012068442 -0.020793417 0.006939333
0.007417312 0.01459997 -0.021584997 -0.014999822 -0.005984583 -0.005217179 0.011186754 0.015586137
0.00014402483 -0.025950633 0.0071540847 -0.0033627807 0.020809608 0.0074630245 -0.0157457 0.012788798
0.0027250391 0.02277276 -0.00039859206 0.0016721936 -0.014970458 -0.027390603 0.016410436 -0.027448814
0.017553907 -0.0018795423 -0.0023739166 -0.008841839 0.0038691293 0.00028330676 -0.008399462 -0.010446769
0.023497174 0.0100709805 -0.023016185 -0.013789574 0.0077636214 0.023654489 0.012382634 0.0006304029
-0.01819155 0.017031576 0.010779737 0.012539249 0.0133252265 0.017889047 -0.017331934 -0.009901305
0.015151933 -0.018723994 -0.013036207 -0.018155703 0.02105512 0.02376437 0.026064033 -0.0026161142
-0.0057235365 -0.010600803 -0.009690211 0.01708093 -0.013578404 -0.022958709 -0.004889249 -0.008057654
-0.007964814 0.023520904 -0.017826138 0.025914093 -0.022670066 -0.005896356 0.014110813 0.0122030545
-0.011956591 -0.008924104 0.02051646 -0.022909291 -0.0098019 0.00042789476 -0.014663225 -0.028347792
0.02411412 0.021900453 0.007148243 0.0015675809 0.018880298 -0.025980558 -0.016818373 -0.027116586
-0.0055139847 0.0010081587 0.0056898557 -0.008027513 -0.016763953 -0.020087413 0.015344561 0.0030472807
-0.025556633 -0.025175707 0.015184308 -0.0042348756 0.02214602 -0.01768132 -0.005254601 -0.016823987
0.024776736 0.023722047 0.013511902 0.02482158 -0.007897782 -0.023411805 -0.0067560407 5.8801495e-05
0.021417286 0.008889282 -0.028162582 -0.017338108 -0.005236919 0.0036270337 0.01925777 -0.018624585
-0.0029687975 -0.008985421 -0.007546833 -0.008840744 0.011806173 0.01693402 -0.009584875 0.0074159084
-0.0013299818 0.016676417 -0.01961407 -0.00030442755 -0.005896809 -7.213883e-05 0.010782996 0.024256313
-0.006969531 -0.009287811 -0.01114775 -0.0070104157 0.0014457199 -0.004874398 0.01666286 0.0150939645
0.008924273 0.0069879056 0.017291468 -0.028032951 -0.018921118 -0.017478252 -0.027973112 -0.010887396
-0.00022042719 0.0027747387 -0.023937916 -0.013202125 0.014854511 0.002252229 0.021034995 -0.011548551
-0.022007555 0.0074970783 -0.024297813 -0.0022771808 0.022194276 -0.009637687 0.018334419 -0.017678957
-0.021291232 0.024830595 -0.017274285 -0.011283523 0.015367512 0.009542216 -0.0038446784 -0.014686117
