model_concat.pt (torch_old, 101186 bytes, 3 tensors)

weight f4 [20, 903]
00000000: 5867 f53c 5219 933b 3529 0c3d 2cc2 50bc
00000010: 0714 dcbb cae9 bb3c 1e03 183d fb5a 3abb
00000020: 5418 0cbc 525f c2bc 4488 8a3c f0d8 4cbc
00000030: cd51 4dbc 6806 543c 254b 343d f7a1 13bc
00000040: a6ba 803b 4e0e 303b 303e 8b3c 5195 9d3c
00000050: 0ce1 d5bc c7ab 203c 9e11 1f3d e8b2 52bc
00000060: 9615 ac3b 20a2 91bc 82b4 b03c b3f4 b4bc
00000070: c0be f2ba e90a 83bc 7e2f 953c 6be7 1e3b
00000080: 78e5 49bb 55bb ee3c 9a37 043d 91ed 513c
00000090: 07d5 0ebd 3b90 e13c a931 3fbb 16d7 9d3c
000000a0: 9fd8 58bc d4c3 f63a dc5d 4b3b ee7a 683c
000000b0: 4ab0 05bd da0d 9ebc 07d2 ad3c 51c0 2e3d
000000c0: 072c 64bc 42cd 233d 561a 883b 9785 22bd
000000d0: 9655 86bc 98ed 9b3c a9ff 0b3c ba0a e7bc
000000e0: f4c9 d03b 90db 9bbc 1d11 7f3c 5043 343d
000000f0: 9e3c b83c 867c ebbc 25a0 cdbc d3e3 81bc
00000100: 622c fdbc 44e9 083d 685e 053d 16a2 f2bc
00000110: b7e0 ecbb 4e09 5b3b 4489 0ebd 090b 06bd
00000120: 47f1 0ebc 5197 a73c d0f5 043c 8165 193c
00000130: 10c3 9b3c 6fe6 f1bc f9d5 2aba 0361 5e3b
00000140: bdf7 de3b 54f5 003b 9fbe 9f3c 951f 93bc
00000150: 75a0 3bbc f994 033d 680f 05bb ff95 39bb
00000160: afcf fc3c cfb7 8c3a 70e1 9cbc f340 ae3c
00000170: 5286 e9bc f7e4 b3bc c79c bc3c d0bb 6b3c
00000180: 1315 ccbc fb31 33bb 0d60 8cbc 20de 193c
00000190: 5120 a6bc aed9 48bb 6529 e33c f3ec e83c
000001a0: 48b9 c03c 981f 55bc 14f9 73bc b52f d13c
000001b0: 27cc d33c 7ed7 f63c e4d5 ae3c 4085 a2bc
000001c0: 6969 783c 6b5f fb3c e892 8c3b 446c dc3c
000001d0: fe77 ebbc 4942 2ebc 845b f2bc de9d 96bc
000001e0: 6c52 0cbc 2214 8ebc f5e3 de3b 202a 003b
000001f0: c7b3 6a3c 81b7 8239 4af0 20bc 252c 9b3c
00000200: 603f 4f3c b0c5 e9bc 5ab6 eabc 8f79 8abc
00000210: a62c c73c 6b6d a53b 0e32 30bc adb7 9bbc
00000220: 83a2 e1bb fe3c 883b da84 993b ab43 45bc
00000230: ca98 01bd a317 a6bc 71ee aabc b0dc b2bb
00000240: f46d 92bc 7f97 09bc cdc7 2f3d 1025 19bd
00000250: 5125 813b 34a9 cc3c d55e d53c 5e96 113d
00000260: 1acd 163d 03ac 11ba cb11 ef3c bf28 ad3c
00000270: 981b b63c df19 95bc 2c0c 9d3c 2c33 303c
00000280: 3120 2dbd 272f b5bc 75a6 333c a414 89bc
00000290: 2546 55bb 2e9a c0bc c37d fbbb db03 53bc
000002a0: b15d d5bb e4ad 3dbc 2335 67bc 3f3c 053c
000002b0: 7749 9b3b ac8b c93b 2b76 18bd e8cd 0c3d
000002c0: e0f7 e63c de1e 89bb bbe4 833c 9df5 e13c
000002d0: 8e4f e53a 5aaa dcbc 13a8 1d3d 21fa 4abc
000002e0: 7662 03bc 9d95 d13c c42a 2abc ca51 89bc
000002f0: e63c 2bbd 78ee 2a3c 4af7 843c 5bd4 d43c
00000300: 3929 82bb 8eed 263b f5e8 d53c 601f 0abd
00000310: db1b a03b a886 29bc 17ab 8e3c a869 d23b
00000320: 7e0f ce3c f12c 27bd c182 9bbc 4e1d 4bbc
00000330: c711 d3bc c0bf aebc e711 2abc f4bf 0dbc
00000340: 733d 48bd bca5 f6bc e6a3 04bd 0d53 2dbd
00000350: aba5 b7bc 6223 723c 3e47 99bc 2a40 1f3d
00000360: 8c3c d1bc abdf 0abb eb2d 92bc cc87 c63c
00000370: cda5 edbc bd88 acbc decb a63c 30c1 edbc
00000380: 20fd b93c 21b2 acbb a927 fa3c 6271 39bc
00000390: 5b2d 75bc 74ee 15bd 31ea b5bc 7521 cf3c
000003a0: c06c 2f3c 4eee 1ebd ad62 bfbc 3f50 aa3c
000003b0: c02c d53c 418b ec3c 537e 49bb 8b80 7a3c
000003c0: 97c2 84bc e97a 9ebb 7650 a0bc a4c9 99bb
000003d0: f6e0 fbbc 9743 403c 8206 6b3c b247 eebb
000003e0: 9bfd e4bc a7df 2eb8 59d4 01bd 6b1b c03c
000003f0: 6a29 dfbb d3c1 0fbd 5d88 903b f173 b53b
0.029956505 0.0044891024 0.034218986 -0.012741607 -0.0067162546 0.022938628 0.037112348 -0.0028435576
-0.008550722 -0.023727093 0.01691068 -0.012502894 -0.01253171 0.0129409805 0.044016976 -0.009010783
0.0039285 0.0026863995 0.016997427 0.019236239 -0.026108287 0.00980658 0.03883516 -0.012860037
0.0052515967 -0.017777503 0.021570448 -0.022089338 -0.0018519983 -0.015996413 0.018211123 0.0024246823
-0.003080694 0.029142061 0.03227959 0.012812988 -0.034871127 0.027534595 -0.0029173887 0.0192676
-0.01323524 0.0018826672 0.0031031286 0.014189465 -0.032638825 -0.019293714 0.021218313 0.042663876
-0.013926513 0.03999067 0.00415353 -0.039678182 -0.016398232 0.019034192 0.008544841 -0.028203357
0.006371731 -0.019025594 0.015568045 0.044009507 0.022489842 -0.0287459 -0.025100777 -0.015855705
-0.030904952 0.033425584 0.032560736 -0.029618304 -0.0072289365 0.0033422294 -0.034798875 -0.032725368
-0.008724517 0.020457895 0.008115247 0.009362579 0.019013911 -0.029528825 -0.000651687 0.0033932335
0.006804435 0.0019677477 0.019500075 -0.017959395 -0.01145183 0.032124493 -0.0020303372 -0.0028318164
0.03086075 0.0010735932 -0.019150466 0.021271205 -0.028506432 -0.021959765 0.023023976 0.01438804
-0.024912393 -0.0027343023 -0.017135644 0.009391338 -0.020279082 -0.0030647325 0.0277297 0.028433299
0.023525849 -0.013008021 -0.014890928 0.025535444 0.025854183 0.030132052 0.021342225 -0.01983893
0.0151618505 0.030685147 0.0042899735 0.026907094 -0.02874374 -0.010635921 -0.029584654 -0.018385824
-0.008564573 -0.017343584 0.006802077 0.0019556358 0.014325089 0.00024932253 -0.009822914 0.018941948
0.012649387 -0.028536648 -0.028651405 -0.016903667 0.024313282 0.005048444 -0.0107541215 -0.019008482
-0.006885828 0.0041576615 0.0046850266 -0.012040059 -0.03163985 -0.020274943 -0.02086565 -0.005458437
-0.017874695 -0.008397936 0.042915154 -0.03738886 0.003941216 0.024983026 0.026046196 0.035543792
0.036816694 -0.0005556943 0.029183289 0.021137593 0.022229955 -0.018200813 0.019170843 0.010754388
-0.04226703 -0.02211721 0.010964979 -0.016733475 -0.003254303 -0.023511019 -0.007674904 -0.012879337
-0.006511413 -0.011577103 -0.01411179 0.00813204 0.0047389823 0.0061506834 -0.03722207 0.034376055
0.028194368 -0.004184588 0.016100278 0.027582938 0.0017495023 -0.026936699 0.038490366 -0.012388737
-0.00801908 0.025584036 -0.010386173 -0.016762633 -0.041806124 0.010432832 0.016231198 0.025980165
-0.0039721993 0.0025471183 0.02611206 -0.033721328 0.004886133 -0.010347046 0.017415566 0.0064212866
0.025153872 -0.040814344 -0.018983247 -0.0123971235 -0.025765313 -0.021331668 -0.010380245 -0.008651722
-0.048886728 -0.030108325 -0.03238287 -0.04231553 -0.022417864 0.014778944 -0.018710729 0.03887955
-0.025541566 -0.0021190445 -0.017844161 0.024234675 -0.029009724 -0.021061296 0.020360883 -0.029022783
0.022703707 -0.005270258 0.03053649 -0.0113185365 -0.014964427 -0.03660436 -0.022206398 0.025284508
0.01070708 -0.038801484 -0.023362482 0.020790217 0.026022315 0.028874995 -0.003074546 0.015289436
-0.016206069 -0.0048364294 -0.019569617 -0.004693227 -0.030746918 0.011734865 0.014344813 -0.0072717303
-0.02795296 -4.1693125e-05 -0.03169665 0.023450574 -0.006810357 -0.035096955 0.004410787 0.005537503

bias f4 [20]
00000000: 8a15 b43c 082e 8b3c 681b ee3c 91b1 54ba
00000010: 1706 233d 911c e93c a258 263d d22d 9ebc
00000020: 8b51 303d 26ee bcbc 8d71 e83c b1c3 e8bc
00000030: 9d00 babc fc65 683c 1234 b43c 5aca c7ba
00000040: 7315 0f3d 6092 2dbc 3012 ecbc 54ec c4b9
0.021982927 0.016989723 0.029065803 -0.00081136177 0.03980073 0.028456004 0.04061187 -0.019308958
0.043046515 -0.023062777 0.028374458 -0.028413625 -0.02270537 0.014184471 0.021997485 -0.0015242801
0.034932565 -0.010593981 -0.028817266 -0.0003756011

weight f4 [4, 1240]
00000000: 29b2 d7bc e866 e6bc ea60 f3bb 334b 33bc
00000010: 3fc8 f4bb ca98 863c 8154 d0bc 9b51 833b
00000020: 86be 2bbc 8a9b 21bc 46b5 abbc 1279 aabc
00000030: 6f14 3cbc 4193 64bb 26a5 eebb 273a 47bc
00000040: f00b db3b fd07 98bc 2351 3e3c 2abd a93a
00000050: 92be 5ebc 9385 833c a050 f6bc 3590 ba3c
00000060: 2634 a8bc 7ee0 b8bb 8bed 00bd 9d2b 26bc
00000070: cf3a ffbb 8faf 0dbc 46ad 59b9 72ef 9abc
00000080: b6eb 3cbc f560 033c ca83 e7bc f239 aebc
00000090: c4eb 0fbc 00bf 2f39 18e9 ed3a 1eca 683c
000000a0: 9f98 f9bc 12e7 2d3c 587c 6ebc 3e72 65bb
000000b0: f767 82bc 8d6e 603b 1378 d9bc 93eb 42bb
000000c0: e561 0dba b97d 13bc 5507 ef3b db56 433c
000000d0: 0f8e 043c a3fc a43b 3206 a4ba 6b62 39bc
000000e0: 93c4 a6bc cec3 983c b107 a8bc 529d 6d3c
000000f0: 5ddf 4f3c 2a5f 573c 3467 6dbc 3d49 99bc
00000100: d350 773c 30e9 d63a ed26 8b39 5240 a13c
00000110: 12c8 e3bc e4a0 873c cbcc a33c 6052 213b
00000120: 1242 6b3c 2ddc f5bc 2dc6 093a 4609 883c
00000130: 205c 423c 6b10 9abb 9493 7abc 641a 52bc
00000140: 4cb8 503c da54 b4bc a2b7 8c3c 5ab8 e7bc
00000150: 182c ca3c e1f1 bf3b dfe0 79bc 3c18 c43c
00000160: 4aa0 47bc 689f bfbb 1aa7 a93c fac7 d1bc
00000170: 2189 b63c 271c 4cbb 5897 b23c 656b 43bc
00000180: 5037 e6bc 6d89 9b3c 9c48 70ba 140b 39bc
00000190: fefb 56bc 30bc 8fb8 85ff 323c eb81 563c
000001a0: 42cb b43c 3dd1 32bc a405 57bc 684e 2f3c
000001b0: 1a55 cfbc 30e7 4f3c 0789 cfbc 97eb cf3a
000001c0: 36f5 5bbc f981 febc eae4 adbc 8450 40ba
000001d0: 1a4b 383c e570 c53b 511b c53b 697d 4cbc
000001e0: 6c0f c33c f1e8 5bbc c6d9 ac3c fd16 c8bc
000001f0: c3ba f0bb 64f0 5b3c 52d7 0f3b aa36 073c
00000200: ad5b f6bc 4cf5 8c3c 7c79 d63c a459 a43c
00000210: 6155 8cbb 3bff dabc d80d 1abc b2ed 813b
00000220: f034 e1bc 8d2f d0bc f838 003b c358 a1bc
00000230: 2108 e4bc 8e56 1c3c 4032 ebbc 4cb0 603c
00000240: 0970 26bc 3a0b 2dbc 6a57 243c 3c5e 83bc
00000250: bfba d7bb 07bd b03c 1932 a8bb c99d 883b
00000260: 43f1 c43c c05e b93c 7557 9ebc 29a2 c83b
00000270: 9646 fe3a c02f ae3c 2258 4dbc 4007 023c
00000280: 1220 2ebb cecc d9bb f64c fbbc 8728 893c
00000290: 286f 15bc aac4 f2bb c164 e0bc 6acf a7bc
000002a0: fd69 763c 9829 ad3c 8118 00bd a167 f1bc
000002b0: c6b9 fdbc b7ad 513c e806 ff3b ac44 a53c
000002c0: d33b edbc 8479 87bc c6b5 883b c0d5 483c
000002d0: 410d 06bc ddd7 f7bc ffc7 51bc f9d1 95bc
000002e0: 78ed 873b bffd 463b 9f6f 25bb ff40 51ba
000002f0: 1643 f7bc 5d1a d0bc b347 ccbb 52a7 963c
00000300: 118b 053c b5a3 c03c cf28 99bc 13e4 ffbb
00000310: 8819 e3bc 8c88 a9bc 9961 8e3c cef9 8fbc
00000320: e0f0 d53b bcf4 bebc fe4c 283c d11f 81bc
00000330: fff8 0b3c 19b6 a339 f05e 963b 6127 733a
00000340: 0694 abbc 60a4 e1bc 43f6 27bc 8e96 cabc
00000350: c265 623c 126a 90bc 5ead 89bc e842 7a3c
00000360: 048f aebc c192 133c 12b5 5cbc 6c94 b3bc
00000370: 29e7 093c d5a6 95bc e637 88bc b21f 89bc
00000380: 8430 eebb 4548 e8bb 7c52 9137 0c49 3ebb
00000390: 4815 dfbc c23c fdbb a40e ac3c 1d2d ebbc
000003a0: da98 d3bc fe8f 9cbc 4108 34bc 351e b4bc
000003b0: 2bb4 933c 93ea ca3c 2116 a53b 3e38 973b
000003c0: b800 243c 05ba 9ebc dc8f d4bc 42f9 533c
000003d0: 0222 0ebc 72fe b53c 72f1 acbc aae8 05bb
000003e0: dc5d 42bc fecf 9cbb 9cf5 713c 3e8f 85bc
000003f0: 3d0e f9bb 11ae bcbb 4c87 923c 75f8 a13c
-0.02633007 -0.028125241 -0.0074273245 -0.010943222 -0.0074701603 0.016430277 -0.02543092 0.004007531
-0.010482436 -0.009863744 -0.020960461 -0.020809684 -0.011479481 -0.003487781 -0.007282871 -0.012159861
0.0066847727 -0.018558497 0.011616024 0.0012950052 -0.01359524 0.016054904 -0.030067742 0.022773841
-0.020532679 -0.005641996 -0.03147654 -0.010142234 -0.007788993 -0.008647813 -0.00020759282 -0.018913005
-0.011530807 0.008018722 -0.028261084 -0.021267865 -0.008784238 0.00016760454 0.0018151132 0.014208345
-0.030468283 0.0106141735 -0.014556013 -0.003501072 -0.015918715 0.003424558 -0.026546514 -0.0029742464
-0.00053933106 -0.009002143 0.007294575 0.011922563 0.00809051 0.0050349995 -0.0012514053 -0.011314969
-0.020357406 0.018648054 -0.02051148 0.01450284 0.012687531 0.0131452475 -0.014489938 -0.01871168
0.015094954 0.00163964 0.00026541148 0.01968399 -0.027805362 0.01655621 0.019995114 0.002461575
0.014359014 -0.030012215 0.0005255666 0.016605984 0.011862785 -0.004701664 -0.015293974 -0.012823675
0.012739252 -0.022013117 0.017177407 -0.028286148 0.024679229 0.0058576916 -0.015251367 0.023937337
-0.012184212 -0.00584786 0.020709563 -0.025608052 0.022282185 -0.003114471 0.021800682 -0.01192746
-0.028102547 0.018986428 -0.0009166093 -0.011294145 -0.013121603 -6.853824e-05 0.010925178 0.013092498
0.022069577 -0.010914144 -0.013123903 0.010699846 -0.025309134 0.012689397 -0.025333894 0.0015863058
-0.013425162 -0.031067835 -0.021227319 -0.00073362165 0.011248374 0.006025421 0.0060152193 -0.012481072
0.023811065 -0.013422237 0.021099936 -0.024425024 -0.0073464825 0.013424013 0.002194841 0.008252779
-0.030073011 0.01720681 0.026180975 0.020062275 -0.004282639 -0.026733031 -0.009402715 0.003965103
-0.027491063 -0.025413299 0.0019565206 -0.019695645 -0.027835907 0.009542121 -0.028710485 0.013713907
-0.010158547 -0.010561759 0.010030607 -0.016036145 -0.006583541 0.02157451 -0.005132925 0.0041692
0.024040824 0.022628188 -0.019328812 0.0061228466 0.0019399698 0.021263003 -0.0125332195 0.007936299
-0.0026569408 -0.006646729 -0.030676346 0.016742958 -0.00912074 -0.007408698 -0.027391793 -0.020484645
0.015039918 0.021137998 -0.03127337 -0.02946836 -0.030972373 0.0127977645 0.0077828057 0.020174347
-0.02895919 -0.016537435 0.0041720597 0.012257993 -0.008181871 -0.030254299 -0.01280403 -0.0182886
0.0041481815 0.0030363647 -0.0025243533 -0.00079824025 -0.030183356 -0.025403196 -0.006234133 0.018390331
0.008150832 0.023515562 -0.018696217 -0.007809171 -0.027722135 -0.020694993 0.017380523 -0.01757517
0.0065289587 -0.023310058 0.010272263 -0.015762242 0.008543252 0.00031225456 0.004588954 0.0009275582
-0.020944607 -0.0275442 -0.010251584 -0.024729993 0.013818206 -0.017628703 -0.0168063 0.015274741
-0.02130843 0.009007157 -0.013470905 -0.021921359 0.008416929 -0.018268028 -0.016628217 -0.016738746
-0.007268967 -0.0070886933 1.7323757e-05 -0.0029035239 -0.027231827 -0.00772819 0.021003075 -0.028708035
-0.025829721 -0.01911163 -0.010988296 -0.02198706 0.018030247 0.024770057 0.0050380384 0.004614859
0.010009937 -0.01937581 -0.025947504 0.012937846 -0.0086751 0.022216056 -0.021111224 -0.0020432868
-0.011863198 -0.004785537 0.0147680305 -0.016303655 -0.0076005743 -0.005758055 0.01788678 0.019771794
