models/model.pt (torch_old, 392870 bytes, 3 tensors)

weight f4 [100, 903]
000000 dc 6f 00 bc 19 d5 89 3c 6a ba 25 3c c4 2e e0 3b
       -0.007839169 0.016825246 0.010115245 0.0068415124
000010 cd 55 e7 bc a6 25 11 3c 16 1a 61 3c f9 3c b9 3c
       -0.028239155 0.008859074 0.0137391295 0.022612082
000020 b1 40 af 3a 8c 6d c0 3c bc f9 01 bd c5 3c ec 3b
       0.001337072 0.023489736 -0.031732306 0.0072093927
000030 00 03 64 bb eb 0a 88 3c 9d 5a fc 3c 7b 71 79 bb
       -0.0034791827 0.016606769 0.030804927 -0.0038062024
000040 8e 79 63 bc f1 4f c6 3a c5 20 fd 3c 39 5d 3e 3c
       -0.013883961 0.0015130026 0.030899415 0.011618906
000050 54 ee 02 3d 4e b3 af 3b 5d 10 a1 bc 71 d6 d5 bc
       0.03196557 0.005361951 -0.019661123 -0.02610323
000060 b0 64 5c 3c 9d 11 e8 3c ce 7c 83 bc 55 1c a8 bc
       0.01345174 0.028328711 -0.016050722 -0.020521322
000070 fa 7c 00 bc e4 f9 d6 3b 67 3c 1e 3b b1 ee 98 bc
       -0.007842297 0.006560551 0.002414489 -0.018668504
000080 ae ed d1 3b 1c c9 84 bc 0a 5c eb 3c 80 10 ff 3c
       0.0064065075 -0.016209178 0.028730411 0.031135798
000090 f6 2d 40 3c 62 92 0c bc f8 eb 86 bc 70 0a 0d 3b
       0.011729708 -0.008579822 -0.01646994 0.0021521114
0000a0 91 f3 6e 3c 7c 2e 9c 3b fa b2 98 3c ca 83 d2 3b
       0.014584438 0.0047662836 0.01864003 0.006424402
0000b0 30 48 67 bc 93 18 5b 3c 33 73 51 3c 44 bc a8 bc
       -0.014116332 0.013372558 0.012783813 -0.020597585
0000c0 f0 70 57 3c 3e e2 ba 3c 97 2e 01 bd dd 98 a7 bc
       0.013149485 0.022812959 -0.031538572 -0.020458633
0000d0 ab 55 e9 3c b9 7b dc bc 8e 96 b0 bc 8b 92 0c bc
       0.028483232 -0.026914464 -0.021556165 -0.00857986
0000e0 75 08 b0 3c db 94 05 3a 6c 22 d7 bc 45 72 9f bc
       0.021488408 0.00050957286 -0.02626153 -0.019463668
0000f0 ce 2e ab bc 5b 77 2f bc 63 a5 e8 3c b5 1f ad 3c
       -0.020896342 -0.010709609 0.028399175 0.021133283
000100 93 7d 50 3b 56 11 74 bc cc 80 ed bc b2 ca fd bc
       0.003181313 -0.014896711 -0.02899208 -0.030980442
000110 6a ab a5 bc 08 b7 7f 3c a3 2e ae 3b 7b 82 b6 3c
       -0.020223338 0.015607603 0.005315618 0.022279015
000120 83 d1 e3 bc 45 4a aa 3c 10 61 ef bc c6 a8 c3 3c
       -0.027809864 0.020787368 -0.029221088 0.023884188
000130 7c 06 84 3c ea 97 1c bc e4 5a c3 ba 3f ea 56 3c
       0.016116373 -0.0095577035 -0.0014904407 0.013117372
000140 6d eb bd bc 39 17 9d 3b ef 96 33 3c ff 29 82 bc
       -0.023183549 0.004794028 0.010961278 -0.015889166
000150 07 7e b4 bb aa 52 b1 bc 63 ca 3e 3c d5 d7 2c 3c
       -0.0055081877 -0.021645863 0.011644932 0.010549505
000160 be 68 4e 3b 77 12 79 bc f2 20 05 3d d0 fb 81 bc
       0.0031495537 -0.015202156 0.032502122 -0.015867144
000170 53 02 e7 3b 20 95 80 bc 6c 0a fa bc dc 38 df 3c
       0.0070498376 -0.015696108 -0.030522548 0.027248792
000180 17 c3 07 bd cf e8 cb bc c8 78 85 3b 3c 11 a7 bc
       -0.033145037 -0.024891285 0.004073236 -0.02039396
000190 a3 04 37 bc b7 8d 41 bb b6 22 94 ba f3 a5 b5 bc
       -0.011170539 -0.0029533932 -0.0011301849 -0.022173857
0001a0 b4 ff 3c bc 8f b3 c8 3b 4d 30 aa 3c 66 df a8 bc
       -0.011535574 0.0061249207 0.020774985 -0.020614337
0001b0 9c 01 f3 bc 5d cc 40 bc 04 2b e4 bc 7c 98 fe 3c
       -0.029663853 -0.011767474 -0.027852543 0.03107857
0001c0 5b 69 d4 bc 6b 4e 56 bc d7 9b d9 3c 8e c6 10 3c
       -0.025929144 -0.01308022 0.026563568 0.008836402
0001d0 19 f1 69 3a 60 ff da 3c b4 26 6f 3c 8f d0 ea 3c
       0.0008924171 0.0267331 0.01459663 0.028663902
0001e0 bd 63 9b bc fb 2e 1c bc 7b 83 37 bc 3d 4f 8d bc
       -0.018968457 -0.009532685 -0.011200781 -0.017249698
0001f0 66 1f 51 bc 78 a3 9f bc b5 5f f4 bc 4c f8 de bc
       -0.012763834 -0.019487128 -0.029830793 -0.027218007
000200 03 62 33 3b 83 4f ab 3c 31 d4 fe 3b 12 b7 94 bb
       0.0027371652 0.020911938 0.00777676 -0.0045384252
000210 26 59 1e bc b4 80 9e bb c0 56 83 bb 02 fa e2 bc
       -0.009664809 -0.00483712 -0.004008144 -0.027707104
000220 d0 6e 86 3c a1 dc ce 3c b2 67 1d 3c d1 17 f2 bc
       0.016410261 0.025251688 0.009607242 -0.029552372
000230 de 76 a7 bb 3c 3d 49 bc 22 fa 8a 3b a3 7d 87 3c
       -0.0051106056 -0.012282666 0.004241244 0.0165394
000240 81 b5 1c bc c1 1d 31 bc c0 a2 22 ba 92 dd 06 3d
       -0.009564758 -0.010810317 -0.0006204061 0.03292615
000250 12 06 e4 3c 55 08 bd 3c a4 30 20 3c 8b c7 ed ba
       0.027834926 0.023075262 0.009777222 -0.0018141133
000260 12 61 6e 3c c0 c1 81 3c d5 6a df bc bc 9c 05 bd
       0.014549511 0.015839458 -0.027272621 -0.032620177
000270 c3 51 52 bb 20 00 eb bc bb dc 97 3c b5 2b 97 ba
       -0.003209219 -0.028686583 0.01853787 -0.0011533411
000280 0b 6d 72 bc ed 54 0e bc bb 3e 84 bc 0d db 7a bc
       -0.014796506 -0.00868724 -0.016143193 -0.015311015
000290 36 42 fc 3c 1f 1f 63 bc 5e f0 fc 3c 0e 0d 1f bc
       0.03079329 -0.0138624 0.030876335 -0.009707702
0002a0 4d 30 57 bc f5 63 6f 3b f9 ed d6 bc 9f 16 70 3c
       -0.013134074 0.0036528085 -0.026236521 0.014653831
0002b0 84 ad 21 3c 5a 49 16 bc 41 2d 84 bc 73 4d bb 3c
       0.0098680295 -0.009172762 -0.01613486 0.02286408
0002c0 55 37 ac bc b9 8e 58 3c ac c0 17 ba e3 07 d3 bc
       -0.021022478 0.0132176215 -0.0005788903 -0.025760597
0002d0 2b 35 a1 bb 54 1c a4 3b 76 47 95 bc 0a 10 84 3c
       -0.004919668 0.00500826 -0.018222552 0.01612093
0002e0 8d b9 b8 bb b9 c1 e5 bc 74 4c db bc af 29 07 3d
       -0.0056373538 -0.028046476 -0.026769854 0.032998737
0002f0 fe 85 ad 3c 7a 8d bb 3c 82 bf d5 3c d5 07 4d 3c
       0.021182057 0.02289461 0.026092295 0.012514074
000300 79 81 d2 bb 7e 90 6a 3c b3 d4 ff 3c 59 94 c8 bc
       -0.0064241257 0.014316676 0.031229353 -0.0244848
000310 c1 71 70 3c 8f 23 dc bb 70 9c 06 3c 20 c8 e2 3c
       0.014675559 -0.006718106 0.008216009 0.027683318
000320 ce 38 14 3c e6 81 9d bc c1 be 4e 3c 18 10 d8 3c
       0.009046746 -0.01922698 0.012618721 0.026374862
000330 a6 21 8e bc 02 60 3c 3c a3 5d d4 bb fc 18 e8 bc
       -0.01735003 0.011497499 -0.006480889 -0.028332226
000340 34 3c 55 3b 49 4f 5a 3c 25 1b e3 3c 51 18 f4 bc
       0.0032537105 0.013324567 0.027722904 -0.029796751
000350 bc d3 02 3d 72 e7 86 bc 9b a7 5d bc b7 e6 cb bb
       0.031940207 -0.016467784 -0.01352873 -0.0062225717
000360 6c e4 8b 3c 29 85 e5 3c 9a 5f 9c 3b e9 0f f6 3c
       0.017076693 0.028017597 0.004772139 0.030036883
000370 75 ec 73 3c 34 74 9b bb 12 09 3c bc 05 d3 4c bc
       0.014887919 -0.004744077 -0.011476772 -0.012501483
000380 2e 57 e5 3c f4 31 a0 3c 7c 07 e8 bc 83 52 8c bb
       0.027995672 0.01955507 -0.028323881 -0.004282297
000390 06 c0 d1 bc ef 56 79 3a a2 5f e3 bc d6 07 97 bb
       -0.02560426 0.00095115503 -0.027755562 -0.0046090884
0003a0 16 97 88 bc aa c1 bd 3c e4 47 ad bc eb 62 4b 3c
       -0.016673606 0.023163635 -0.021152444 0.012413721
0003b0 df a7 80 3c dc 0d 5f bc 24 72 58 3c 87 77 7c 3c
       0.015705047 -0.013614144 0.013210807 0.015409357
0003c0 61 52 8a 3c dd 00 ee bc 45 b3 04 bc c4 da 4d 3c
       0.016884984 -0.029053146 -0.008099382 0.012564365
0003d0 4b 27 62 3c 31 6f c7 bc e5 44 8f 3c 8a 86 5c bb
       0.0138033135 -0.024345012 0.017488906 -0.0033649527
0003e0 c0 67 af 3c 5d 60 9c 3c cf 3a 07 bc 65 e3 9c 3c
       0.021411777 0.019088918 -0.008253767 0.019151399
0003f0 70 bc a1 bc 62 18 a6 bc 5a f5 7b bc 13 66 b8 3b
       -0.019743174 -0.020275299 -0.015378321 0.0056274026

bias f4 [100]
000000 8d 7e e5 bc 0a 0f 81 3c a4 a8 ce bb 0e c6 a8 3c
       -0.028014446 0.015754241 -0.0063067246 0.020602252
000010 3f fd 88 3c 8e c4 97 3b 10 d9 d1 bc a8 ee fc bc
       0.01672232 0.0046315854 -0.025616199 -0.030875519
000020 56 91 47 bc 75 7b dc 3c de 5b ed 3b 2d 82 b0 bc
       -0.012180647 0.026914338 0.0072436174 -0.021546448
000030 ae 90 b3 bb c0 90 df bb 9d fa d9 bc 01 ad 7a bc
       -0.0054798936 -0.0068226755 -0.02660876 -0.015300036
000040 57 4c 03 3a e2 be e9 3c 2f ed ea bc d7 b5 ff 3c
       0.0005008629 0.028533403 -0.028677551 0.031214638
000050 c9 6e 33 bc e9 94 16 bc df d0 e1 bc b1 d0 b8 3c
       -0.010951706 -0.009190776 -0.027565418 0.02256045
000060 48 ca e3 bc c5 1d a2 bb 22 d0 ce bc 17 a2 48 3c
       -0.027806416 -0.0049473965 -0.02524573 0.0122456765
000070 80 e0 44 ba b9 d6 75 3c f2 c7 94 bc 26 53 9d bc
       -0.000751026 0.015004807 -0.018161748 -0.019204687
000080 98 6d f4 bc c8 8b 03 bd b6 4d e6 bc f6 83 ff bc
       -0.029837415 -0.032115728 -0.028113227 -0.031190854
000090 4c ff 3e bb ce 05 d4 3b 95 53 01 3d fb 96 c4 3c
       -0.0029143868 0.0064704185 0.03157385 0.023997774
0000a0 77 d7 a5 bc 0c 45 02 bc c2 db 38 bc 76 7d 03 bb
       -0.020244343 -0.007951032 -0.011282863 -0.0020063794
0000b0 49 d8 ec bb 9f 9e 14 3c be 72 f6 3b e6 a0 71 bc
       -0.0072279316 0.009071021 0.0075210026 -0.014747834
0000c0 fa 62 b5 3c c5 41 7b 3c e5 2d 48 bb bd 13 b8 3b
       0.022141922 0.015335505 -0.0030544933 0.0056175874
0000d0 ea 51 50 bc 85 5f b3 bc 56 46 a6 bb 60 3b d1 ba
       -0.012714842 -0.021896133 -0.0050743027 -0.001596313
0000e0 f4 a6 83 bc 54 80 ea bc e5 b8 08 3c b5 f4 62 3c
       -0.01607082 -0.028625645 0.008344864 0.013852288
0000f0 14 fd 09 3d f3 3a 38 bc 8b 70 4f bc 4d db 7f 3c
       0.03368862 -0.011244523 -0.01266111 0.01561625
000100 97 2a 88 3c 34 8a fb 38 08 20 43 bc 10 84 09 bb
       0.01662187 0.00011994355 -0.011909492 -0.0020983256
000110 2a df e1 bc a7 a9 be bc 7e d9 a4 bc 3b e0 e9 bc
       -0.027572233 -0.023274256 -0.02012324 -0.028549304
000120 19 5b 95 bc 1e f6 29 3c d8 fb 00 bd 25 07 95 bc
       -0.018231915 0.01037362 -0.031490177 -0.018191883
000130 45 c0 5f bc 18 07 00 3d db 37 f7 bc 5e fd d6 bc
       -0.0136566805 0.031256765 -0.030178001 -0.026243862
000140 7d 8a 6c 3c a6 36 b2 bc 9c 8a a6 3b aa 3d f1 3c
       0.014437315 -0.021754574 0.0050824415 0.029448349
000150 af 72 e3 3b a0 43 96 bc 85 36 5a 3c 4f 42 36 3c
       0.0069411616 -0.018342793 0.0133186625 0.011124208
000160 5d c0 ae 3b b9 3e 83 bc f3 69 4d bc ac c2 bd 3c
       0.00533299 -0.01602112 -0.012537467 0.023164116
000170 3c 20 fe 3c cc a9 f1 3b ca 11 85 3c 88 87 b5 bc
       0.03102123 0.0073749777 0.016243834 -0.022159353
000180 6c 20 24 bc ae 98 3e bc 1b c1 f9 3c b1 d3 e3 bc
       -0.010017496 -0.011633081 0.030487588 -0.027810903

weight f4 [4, 1400]
000000 e3 0f c6 bc 28 c8 7e 3b af 5a b3 3b ec f6 6b 3c
       -0.024177497 0.0038876627 0.005473457 0.0144021325
000010 58 21 b9 3c 33 f3 5f bb 44 a8 4c bc 5b cf cf 3c
       0.022598907 -0.0034172058 -0.0124912895 0.02536743
000020 0a 73 62 3b b2 c1 9d bc e9 ef 8d bc 9d 12 30 3c
       0.0034553432 -0.0192574 -0.017326312 0.010746625
000030 e2 12 80 3c 28 06 b5 3b 78 80 9f 3c ba d6 28 bc
       0.015634004 0.0055244155 0.019470438 -0.010305101
000040 8f 49 bc 3c c2 f0 12 bc 5f 7c f9 ba 08 46 a4 bc
       0.022984294 -0.008968534 -0.0019034258 -0.020052925
000050 3c a6 11 3c cb b5 80 bb c4 12 eb 3a 69 ae 52 bb
       0.008889731 -0.0039279214 0.001793467 -0.0032147414
000060 5c 4a 02 bc 2f fc a6 ba 1b 4f b7 bc 53 9c cc bc
       -0.007952299 -0.0012739951 -0.022376588 -0.024976885
000070 6a 7b 44 3c d2 bd 51 3b eb d3 ba 3b ad b3 e9 ba
       0.011992315 0.003200401 0.005701532 -0.0017830037
000080 6a 55 c8 bc 4e 41 80 bc 7c 07 02 bc 3e dd 53 ba
       -0.024454791 -0.01565614 -0.007936355 -0.0008081979
000090 f9 0c d7 3c 06 7b 5a 3a 7c c0 06 3c 82 1a 87 bc
       0.026251303 0.0008334372 0.008224603 -0.016492132
0000a0 47 0d ce 3c 4d 7f 38 bc 2c cb a3 bb 91 19 cf 3b
       0.025152816 -0.01126082 -0.004998585 0.0063201864
0000b0 97 8d 1c bc fd e8 af 3c 46 92 79 3b dd 46 90 3c
       -0.009555242 0.021473402 0.003808157 0.017611915
0000c0 a0 42 c9 bc 69 33 a0 bc b6 ba b8 38 e6 f8 4d 3a
       -0.024567902 -0.019555764 8.808581e-05 0.0007857218
0000d0 fc 00 95 bc 85 78 57 bc 77 d5 a2 3c 5b 19 82 3c
       -0.018188946 -0.013151293 0.019877179 0.015881231
0000e0 fb ab da 3a d5 f7 cf bc ef df 7b 3c 53 61 82 3c
       0.0016683334 -0.02538673 0.015373214 0.015915548
0000f0 18 e4 94 3c 00 ce bc 3c 4b 7a 06 3c c9 03 8d bc
       0.01817517 0.023047447 0.008207868 -0.017213719
000100 a7 b1 d0 3c 8d a9 c7 bc cd 80 bb bc 1c 3e f1 3b
       0.025475336 -0.02437284 -0.022888565 0.0073621403
000110 e3 24 da 3c d6 0b 88 3b 34 3e 4d bc f3 d9 c9 3c
       0.026628917 0.0041518016 -0.012527037 0.02464006
000120 3c 24 97 3c d9 5f a1 3c 25 aa cf 3c 95 e8 8b bb
       0.018449895 0.019699024 0.025349686 -0.0042696693
000130 b5 2a 43 3c 2b 57 86 bc 56 cf 94 bc 01 47 da bc
       0.011912038 -0.016398987 -0.018165272 -0.026645185
000140 c5 81 72 3c 44 a6 ae bc 25 92 c9 bc e7 2c 55 3b
       0.014801447 -0.021319516 -0.02460582 0.0032527985
000150 21 b9 6b bc a8 76 ba 3b 8f 9c 57 3c c7 8a 84 3c
       -0.0143874 0.0056904145 0.013159885 0.016179455
000160 92 c2 48 bc 10 38 c8 bc d2 7a 96 bb 4b 6f 98 3b
       -0.01225342 -0.024440795 -0.004592278 0.004651939
000170 6a 18 d0 bb a0 1b d1 bb 17 97 c5 bc fa 73 e9 bb
       -0.0063505666 -0.006381467 -0.024119897 -0.007124421
000180 52 7e b9 bc c2 64 85 bc 9d 7b a9 3c 97 58 c1 bc
       -0.022643242 -0.016283397 0.020688826 -0.023601813
000190 79 8a 57 3c 17 83 ab bc e4 34 0b 3b ba 1c a0 3b
       0.013155573 -0.020936532 0.0021241242 0.004886237
0001a0 9e 50 31 3c 1e c7 8c 3c 75 db c9 bc dd 7f 9e bc
       0.010822443 0.01718479 -0.024640778 -0.01934808
0001b0 98 5c d5 3c e7 b7 ae 3c fc 7f b1 3c 85 e2 ac 3c
       0.026045129 0.021327926 0.021667473 0.021104107
0001c0 e9 dc ba 3b 49 58 67 bc 3f ae 1b b9 dd 4d e9 ba
       0.005702604 -0.01412017 -0.00014846864 -0.0017799694
0001d0 01 89 03 3b c2 7f c1 3c a5 d8 dd 3b ee 38 b7 bc
       0.0020070674 0.02362049 0.006770211 -0.022366013
0001e0 38 ae 27 3c 1c 05 62 bc 36 16 ab b8 d8 b1 58 bc
       0.010234408 -0.0137951635 -8.1580525e-05 -0.013225995
0001f0 7e 5a 1f bc 4d f1 37 3c 0d 10 da 3c fc a9 b1 bb
       -0.009726165 0.011226964 0.026618982 -0.005421875
000200 78 d2 87 bb 85 7e db bc 58 0f 64 bc 29 20 d9 bc
       -0.004144963 -0.026793728 -0.013919674 -0.026504593
000210 4c b4 86 bc 2f 9b ba bc 35 77 62 3c 59 2f 8f 3c
       -0.016443394 -0.022779075 0.0138223665 0.017478632
000220 e0 44 6b bc 01 11 0d bc a0 6b ab bc 70 e3 0c 3c
       -0.014359683 -0.008610011 -0.020925343 0.008599147
000230 90 79 b4 bc 17 6a d3 bb f3 61 b0 3c 5d 8f 0a 3b
       -0.022030622 -0.006451856 0.02153108 0.002114258
000240 30 f5 4d 3c ba 34 7b 3c 52 98 cf bc c7 00 c4 3c
       0.012570664 0.015332395 -0.025341187 0.023926152
000250 2d 6b 02 bb 2d 5c bb 3c a6 c4 ba 3c 64 26 61 3b
       -0.0019900308 0.022871101 0.022798847 0.0034355158
000260 7c dd b4 3c ae 12 95 3c 17 3a be bb 2a e5 01 bc
       0.022078268 0.018197384 -0.0058052647 -0.007928172
000270 9f d9 d0 bc cb 5e cf bb 46 fb de 3b 0b 4a f5 ba
       -0.025494395 -0.006328439 0.0068048565 -0.0018714083
000280 45 e5 bc 3b d4 98 9a 3c 9e 4e 8a 3b e5 d4 4c 3b
       0.0057646357 0.018871702 0.0042207977 0.0031254825
000290 1f 5c 87 bc e6 30 93 ba 57 ee 50 bc fa 1e a7 3b
       -0.016523419 -0.0011229783 -0.012752137 0.0051001282
0002a0 10 72 8a ba 43 59 c9 3c fd 62 31 3b 59 33 0a 3c
       -0.0010562558 0.024578696 0.0027067058 0.008435094
0002b0 dd 7d 05 bc 78 fb 86 3c 67 09 64 bc b8 15 9d bc
       -0.008147684 0.016477332 -0.013918257 -0.019175395
0002c0 c2 b8 c9 bc d3 2a 81 bc 7d bb cc bb dd 95 00 3b
       -0.024624232 -0.01576749 -0.0062479363 0.0019620575
0002d0 7b 2f cc 3c f7 7c 80 3b 55 d9 d9 bc 3d ba 48 bc
       0.024924984 0.003921147 -0.02659289 -0.012251434
0002e0 25 74 da bc 10 0f 89 bc 64 bd ca bc 55 96 55 bb
       -0.02666671 -0.016730815 -0.024748512 -0.0032590826
0002f0 51 d5 d3 bc b2 d9 65 3c 29 1d 97 bc 11 9f c8 bc
       -0.025858553 0.014028953 -0.018446522 -0.024489911
000300 0a 59 2c bc 10 d2 85 3c 51 e4 fa ba 29 2d d0 3b
       -0.010519275 0.016335517 -0.001914153 0.0063530398
000310 9f 58 d9 3c 28 39 a4 bc cc c0 c3 bc 3f fe b9 bc
       0.026531516 -0.020046785 -0.023895644 -0.022704242
000320 01 68 a4 3c a3 7e a3 3c 4f b6 b6 bc 7d 40 36 3c
       0.020069124 0.019957846 -0.022303728 0.011123774
000330 22 0d 26 3a 23 cd 27 3b 84 8e 24 3c c6 b3 a2 bc
       0.00063343544 0.0025604449 0.010043744 -0.019861113
000340 48 4d 83 bc e9 8c 47 bc f1 e0 bd bc 32 4a 95 bc
       -0.016028062 -0.012179592 -0.02317855 -0.018223856
000350 29 dd bd 3c 06 0c 92 3b 0f 20 ca 3c 9a 11 d9 bc
       0.023176746 0.0044569997 0.02467349 -0.02649765
000360 63 f3 25 3c 93 f9 be 3b f1 6f 17 3b 2f d3 ab 3c
       0.010128829 0.0058280914 0.0023107494 0.020974724
000370 7c e5 34 3c a7 78 18 bb 26 63 b5 bb be 8d ac 3c
       0.011041041 -0.0023265274 -0.005535501 0.021063682
000380 a0 20 4c 3c ef b1 80 bc e3 1d c5 bc 0a 64 bd bc
       0.01245895 -0.015709845 -0.024062103 -0.023118991
000390 29 2e 84 3c f6 23 e1 bb d4 70 0d bb aa 53 db bb
       0.016135292 -0.006870742 -0.0021582143 -0.006693323
0003a0 78 54 05 b8 7f da d9 bc cb d0 bc 3b 24 7a b0 3c
       -3.178834e-05 -0.026593445 0.0057621947 0.021542616
0003b0 d5 aa 26 3c 7f 68 e4 3a 12 64 40 ba 8e 1d 8b bc
       0.0101725655 0.0017426162 -0.00073391304 -0.016981866
0003c0 58 25 c8 3b c0 0e b3 3b 09 fc ab 3c 47 67 d5 bb
       0.0061079673 0.005464405 0.020994203 -0.0065125558
0003d0 1e 15 a6 bc cc 6a 5f bc 6f c6 f7 3b b7 4b 1d 3c
       -0.020273741 -0.013636302 0.007561497 0.009600571
0003e0 4c 60 9b bc 8a 99 81 bc 9f a1 bc bb 64 93 95 b9
       -0.018966816 -0.015820283 -0.0057565714 -0.0002852931
0003f0 6a 02 16 3a a3 9f 16 3c 90 99 de bc de 96 15 3b
       0.00057224056 0.009193334 -0.027172834 0.002282552
